Ratings/AccAi/onnx/model_sleep_bl.onnx (onnx, 116595 bytes, 17 tensors)

functional_1/time_distributed_2_1/Cast_6/ReadVariableOp:0 f4 [16, 1]
-0.17751668 -0.5357662 -0.2653598 -0.13581729 -0.050287478 0.35502875 -0.27204552 -0.46189713
-0.40255204 -0.08660192 -0.2709668 -0.12189213 0.06431595 0.04110417 -0.30130464 -0.49841455
00000000: efc6 35be f927 09bf 3ddd 87be b013 0bbe
00000010: 3efa 4dbd 54c6 b53e 8d49 8bbe c87d ecbe
00000020: 4d1b cebe 595c b1bd 29bc 8abe 95a2 f9bd
00000030: 15b8 833d d95c 283d 9a44 9abe 3130 ffbe

functional_1/time_distributed_1_2/Cast_4/ReadVariableOp:0 f4 [16, 16]
0.73036754 -0.44325364 0.25246686 -0.053359814 0.33941776 -0.75944096 0.2192424 0.040672354
-0.1091045 0.16950512 -0.35099754 0.45014265 -0.66982627 0.09911108 0.08139164 0.11744155
-0.2584806 -0.13656816 -0.36180624 -0.86581045 0.12065284 0.07870546 0.22550532 0.19644919
0.2529568 0.2245306 -0.18635474 0.23355396 -0.32242623 -0.28224584 0.19411325 -0.10255564
-0.10972242 -0.0015079711 -0.18592447 0.31644133 -0.30128866 0.20439264 0.011686946 -0.08057876
0.016316308 0.66799814 0.19883227 -0.2898766 -0.1485966 -0.3163473 -0.29878968 -0.09225255
0.22781113 -0.23319948 -0.36817172 0.10529852 -0.29057452 0.4853444 -0.095989555 -0.36230084
0.18477893 -0.49552202 -0.36979723 -0.21043387 0.18220311 -0.2689734 -0.3125915 -0.3233364
0.11578082 0.05688975 -0.22811069 -0.12304573 -0.32869083 -0.5008141 0.31014267 0.102732606
0.77904475 -0.39375457 0.010924516 0.13931537 -0.15120904 -0.19548167 -0.38941342 -0.028558386
-0.6156716 -0.3759016 0.2951106 0.10990022 -0.3666133 0.10011732 0.28357264 -0.4026697
0.11148935 -0.2248246 0.09012164 -0.021875449 -0.0072706887 0.18758903 0.05465266 -0.13986665
0.1625784 0.33410978 0.38171518 -0.38290817 -0.22861676 -0.16513902 0.31154606 0.281943
0.6058309 0.18010785 0.23441878 -0.34803954 0.38284394 -0.2567215 -0.0918734 0.3261577
0.6229015 0.27332693 0.31058475 0.269281 0.098906666 0.044782925 0.9453315 0.16350727
-0.14192578 -0.15658951 -0.13566917 -0.026950508 -0.66555285 0.3759888 -0.3961042 -0.08785338
0.35323808 0.28786337 -0.26871794 0.020808166 0.24686636 -0.070234306 0.47982326 0.022733012
-1.0084274 0.04397378 0.32402715 0.2274531 -0.22473793 -0.73896044 0.05803394 0.28911087
-0.37838393 -0.13952284 -0.4543373 -0.48245305 -0.19686437 0.33091787 -0.32891425 0.14627574
-0.85023475 0.2023586 -0.013023469 -0.34982648 0.17503092 0.51489407 -0.0630121 -0.046877082
0.1669565 0.064650305 0.24911499 -0.29577833 -0.43307728 0.17448367 -0.06851839 -0.4165151
0.312621 -0.3601076 -0.5408231 -0.06771054 0.2987273 -0.1279625 -0.18816279 -0.34761453
0.20828785 0.07182172 -0.06078785 -0.51627946 -0.025304189 -0.27455288 -1.1993299 -0.4253478
0.029033469 0.40475744 0.0016634951 -0.41369992 -0.40197718 -0.3892214 0.1734046 0.19556163
0.22744386 -0.3113412 0.34951636 -0.09503585 0.11664415 -0.16652396 0.098860726 0.15096249
0.27449632 0.16899163 -0.26673162 -0.0802282 0.14657587 -0.22874458 -0.24979688 -0.24162577
0.01293321 -0.15057816 -0.11072245 -0.3328223 0.081796326 0.29376844 -0.052344583 -0.004211525
-0.45799285 0.32022703 0.23066865 0.05198821 -0.08488102 -0.08158271 0.121080294 0.022484565
0.080274254 0.1286414 0.2894396 -0.26043427 -0.05641114 -0.1522457 0.72987103 -0.04567817
0.36077034 -0.23451947 -0.08190592 -0.2739569 -0.3680452 -0.6983611 -0.20778789 -0.3297259
-0.0020122812 0.22838166 -0.24746506 -0.22890101 -0.37394974 -0.111889556 -1.127216 -0.12899974
-0.21240084 -0.36265963 0.27243143 -0.08218796 -0.0072961263 -0.38576323 -0.05008783 -0.36683002
00000000: 5ef9 3a3f 24f2 e2be 5643 813e d28f 5abd
00000010: 2ac8 ad3e b96a 42bf 1481 603e 0e98 263d
00000020: 2e72 dfbd c092 2d3e f3b5 b3be 1979 e63e
00000030: bc79 2bbf c0fa ca3d a9b0 a63d 3285 f03d
00000040: 9257 84be 86d8 0bbe ab3e b9be c1a5 5dbf
00000050: d618 f73d 5430 a13d deea 663e fa29 493e
00000060: 8e83 813e 59eb 653e c7d3 3ebe c528 6f3e
00000070: 0d15 a5be 8782 90be a0c5 463e b108 d2bd
00000080: 26b6 e0bd 1da7 c5ba fc62 3ebe 9904 a23e
00000090: 8242 9abe 4e4c 513e 9b7a 3f3c 7a06 a5bd
000000a0: c7a9 853c ed01 2b3f b09a 4b3e b56a 94be
000000b0: b529 18be 46f8 a1be f6fa 98be e8ee bcbd
000000c0: 5247 693e d8cb 6ebe 0181 bcbe c0a6 d73d
000000d0: 2fc6 94be 107f f83e 2c96 c4bd 7f7f b9be
000000e0: b036 3d3e 10b5 fdbe 1056 bdbe fa7b 57be
000000f0: 7493 3a3e e2b6 89be fe0b a0be 598c a5be
00000100: 7f1e ed3d 3a05 693d d995 69be 66ff fbbd
00000110: 2a4a a8be 5a35 00bf 05cb 9e3e 7965 d23d
00000120: 7a6f 473f 339a c9be befc 323c b0a8 0e3e
00000130: 8bd6 1abe 592c 48be 3261 c7be 47f3 e9bc
00000140: a79c 1dbf 2d76 c0be bd18 973e 5e13 e13d
00000150: bdb4 bbbe 4f0a cd3d 6f30 913e b92a cebe
00000160: 8754 e43d 6c38 66be b291 b83d 2434 b3bc
00000170: f53e eebb 5717 403e 78db 5f3d 3439 0fbe
00000180: f47a 263e 7010 ab3e 2c70 c33e 8a0c c4be
00000190: 831a 6abe 341a 29be f782 9f3e d55a 903e
000001a0: bc17 1b3f 316e 383e 7a0b 703e 3d32 b2be
000001b0: 1f04 c43e 0071 83be 1f28 bcbd 24fe a63e
000001c0: 7976 1f3f 82f1 8b3e f704 9f3e 33df 893e
000001d0: 948f ca3d 4d6e 373d 3f01 723f 736e 273e
000001e0: fe54 11be 0059 20be dcec 0abe 50c7 dcbc
000001f0: ac61 2abf 9b81 c03e 2bce cabe 79ec b3bd
00000200: 9fdb b43e d462 933e 6695 89be e375 aa3c
00000210: 89ca 7c3e 01d7 8fbd 65ab f53e 953a ba3c
00000220: 2614 81bf da1d 343d e3e6 a53e 77e9 683e
00000230: b321 66be 832c 3dbf ffb4 6d3d 5706 943e
00000240: 8abb c1be 13df 0ebe e69e e8be 1604 f7be
00000250: d096 49be 116e a93e 7367 a8be 4fc9 153e
00000260: fca8 59bf 1837 4f3e 6360 55bc 751c b3be
00000270: 4e3b 333e 19d0 033f 7d0c 81bd 2f02 40bd
00000280: a5f6 2a3e 6167 843d 0018 7f3e 4270 97be
00000290: 4ebc ddbe d9ab 323e 5f53 8cbd 7841 d5be
000002a0: dc0f a03e 0660 b8be 6273 0abf d3ab 8abd
000002b0: c9f2 983e 9a08 03be bfad 40be 88fa b1be
000002c0: 6949 553e 4417 933d aefc 78bd e42a 04bf
000002d0: bb4a cfbc 3292 8cbe a483 99bf 30c7 d9be
000002e0: 99d7 ed3c 5e3c cf3e a209 da3a 7ad0 d3be
000002f0: f4cf cdbe 0748 c7be fa90 313e 4f41 483e
00000300: 0be7 683e 1d68 9fbe cff3 b23e 28a2 c2bd
00000310: 21e3 ee3d 4285 2abe 7e77 ca3d e995 1a3e
00000320: c88a 8c3e 240c 2d3e 0c91 88be af4e a4bd
00000330: fc17 163e 053c 6abe c1ca 7fbe bf6c 77be
00000340: d0e5 533c 2931 1abe 74c2 e2bd af67 aabe
00000350: d584 a73d d168 963e 4667 56bd d500 8abb
00000360: 0a7e eabe ccf4 a33e 6734 6c3e 97f1 543d
00000370: 1ad6 adbd d614 a7bd f2f8 f73d 8d31 b83c
00000380: d466 a43d 92ba 033e 6d31 943e a457 85be
00000390: 5e0f 67bd 4ce6 1bbe d4d8 3a3f 0819 3bbd
000003a0: e4b6 b83e df25 70be 4abe a7bd 1444 8cbe
000003b0: 6c70 bcbe cbc7 32bf 59c6 54be d5d1 a8be
000003c0: 7ae0 03bb e2dc 693e 7b67 7dbe 0765 6abe
000003d0: 5776 bfbe 5a26 e5bd 9d48 90bf 8218 04be
000003e0: 9b7f 59be 86ae b9be 227c 8b3e 2952 a8bd
000003f0: 5814 efbb c282 c5be e528 4dbd 25d1 bbbe

functional_1/time_distributed_1_2/BiasAdd_6/ReadVariableOp:0 f4 [16]
-0.06815427 -0.058965813 -0.06768585 -0.07487823 -0.018041661 0.12809001 -0.0073374175 -0.0511724
-0.07505843 -0.14105152 0.021593977 -0.023002142 0.13366899 0.067913495 -0.03827467 -0.02695794
00000000: 7794 8bbd 2386 71bd e19e 8abd c259 99bd
00000010: 1bcc 93bc 072a 033e b86e f0bb 279a 51bd
00000020: 3cb8 99bd cf6f 10be dae5 b03c fd6e bcbc
00000030: 86e0 083e 3b16 8b3d e6c5 1cbd e6d6 dcbc

functional_1/time_distributed_1/Cast/ReadVariableOp:0 f4 [69, 16]
0.33279285 -0.04858039 0.1688579 -0.093699224 -0.68034893 -0.36177555 -0.011383792 -0.32546186
-0.04503175 -0.11931678 0.09975521 -0.0074972985 -0.13675727 -0.16760947 0.09047256 -0.0024654076
-0.040207904 0.20613296 0.03264068 -0.3151769 0.32522455 -0.019029278 0.16843659 0.058350347
0.22525875 -0.16852184 -0.31775126 -0.15271084 0.14914446 -0.24574955 0.23960403 -0.18013653
-0.33577007 -0.12311922 -0.062574476 0.35936514 -0.12676072 0.17132734 0.07867235 -0.03164854
-0.13501795 -0.08628716 0.13064279 -0.15625511 0.043453522 0.29198503 0.17788672 0.15184341
0.2227804 0.057352416 0.08104736 -0.050283805 -0.030410128 0.01628232 -0.25328222 -0.4115765
-0.08718767 -0.042766463 0.11248556 -0.2695384 0.15058528 0.28822914 -0.26951587 -0.14387052
-0.4306745 -0.087492734 0.18329161 0.36429438 -0.2543891 -0.1562476 0.0879522 0.08988105
-0.007401133 0.3630802 -0.08134277 0.12473318 -0.28113124 0.14274499 -0.084086545 0.15179315
-0.20274246 0.072268896 0.21418868 0.33582643 0.16646 -0.19351715 0.11803522 -0.25728166
-0.17317234 0.17827156 0.22367308 -0.07442059 -0.11327526 -0.1488276 0.30539876 -0.20551968
-0.16685867 0.05923789 0.20206763 0.16640969 -0.056936324 0.0072046574 0.19130582 0.11357715
0.28984594 0.22712389 0.10966276 -0.36683962 -0.15673281 0.28639498 -0.011513598 0.20038977
0.31444424 -0.30637872 0.14688526 0.09019839 0.05322639 -0.21101667 -0.18044546 -0.49356493
-0.25790626 -0.17506038 0.19680789 0.10746699 -0.039610617 -0.024910284 0.2803667 0.2577827
-0.09217496 -0.33654463 -0.13689512 -0.29999 0.05209224 0.0964342 -0.014478821 0.34339702
0.20798734 -0.2929232 0.048709784 0.1560323 0.24742995 -0.3583295 -0.061971117 0.17741562
-0.53052384 0.15072766 0.026636155 0.028566206 0.009389203 -0.047166668 0.287833 -0.22150676
0.32507858 0.34450692 -0.13889444 -0.78209037 0.2561886 -0.007743204 -0.1660312 0.33460075
-0.37574342 -0.082272075 0.26087052 0.041221626 -0.7633365 0.19860463 0.32042837 -0.34391436
0.1723955 0.7427212 -0.0629178 -0.5673406 0.2570827 -0.08130892 -0.007800842 -0.1253358
-0.6438937 0.016239714 0.694215 -0.04230255 0.23867758 0.5130456 -0.12364937 -0.45207205
-0.34118938 -0.3598075 0.0658287 -0.0027539441 -0.15170766 -0.36239862 -0.044969372 0.071934626
-0.121761315 -0.35015 -0.008197401 0.10492839 -0.34834638 0.0802912 -0.10301377 -0.39676714
-0.08783281 -0.17468646 -0.2687675 0.034682423 -0.24843161 -0.1755858 -0.072011776 0.3730422
-0.2897689 0.14167541 -0.120045885 0.21331918 0.19963303 0.21716604 -0.21862474 0.02181204
-0.030309819 0.051481392 -0.057670582 0.11312151 -0.19494222 0.044810493 0.036707994 0.1527349
-0.16590384 0.14381114 -0.1547486 -0.2692903 -0.5630212 -0.645631 0.3095789 -0.3784828
-0.2844817 0.15469866 -0.35989693 -0.84961927 0.21405242 -0.279868 0.13861819 -0.38228074
0.41648027 0.3833168 -0.38762024 0.24724832 0.031474322 -0.66249025 -0.19456062 0.23268464
0.19679606 -0.2754189 0.26625597 0.20981412 0.21783033 -0.0038352984 -0.042255208 0.13160491
00000000: d363 aa3e 3bfc 46bd 16e9 2c3e 61e5 bfbd
00000010: 592b 2ebf a53a b9be 1683 3abc f0a2 a6be
00000020: 3673 38bd 5b5c f4bd 764c cc3d e6ab f5bb
00000030: 190a 0cbe d1a1 2bbe ad49 b93d ad92 21bb
00000040: 0bb1 24bd 8514 533e 3cb2 053d de5e a1be
00000050: d583 a63e 4ae3 9bbc a47a 2c3e c600 6f3d
00000060: 3baa 663e fd90 2cbe 4bb0 a2be 3b60 1cbe
00000070: 53b9 183e c5a5 7bbe c25a 753e b675 38be
00000080: 0eea abbe ee25 fcbd 0c27 80bd b5fe b73e
00000090: 90cd 01be 6f70 2f3e f81e a13d e6a1 01bd
000000a0: 2542 0abe 53b7 b0bd 39c7 053e 5701 20be
000000b0: 52fc 313d 107f 953e f027 363e d77c 1b3e
000000c0: 8c20 643e 5eea 6a3d 29fc a53d 64f6 4dbd
000000d0: a91e f9bc 8062 853c 35ae 81be 28ba d2be
000000e0: 738f b2bd e32b 2fbd d45e e63d f000 8abe
000000f0: 0733 1a3e c592 933e fcfd 89be cb52 13be
00000100: 5e81 dcbe 642f b3bd ccb0 3b3e cb84 ba3e
00000110: 4a3f 82be 5fff 1fbe 4820 b43d 8e13 b83d
00000120: 3485 f2bb a6e5 b93e 0a97 a6bd 1c74 ff3d
00000130: 6ff0 8fbe be2b 123e 9135 acbd aa6f 1b3e
00000140: b89b 4fbe b701 943d 4754 5b3e 71f1 ab3e
00000150: 7e74 2a3e 5c29 46be 73bc f13d 6cba 83be
00000160: 1754 31be d28c 363e 8e0a 653e d369 98bd
00000170: dcfc e7bd 4366 18be 3a5d 9c3e c073 52be
00000180: 00dd 2abe 6ea3 723d d1ea 4e3e 4d67 2a3e
00000190: 1036 69bd 0c15 ec3b ace5 433e 239b e83d
000001a0: b066 943e 2a93 683e de96 e03d 67d2 bbbe
000001b0: 917e 20be 5da2 923e 88a3 3cbc fa32 4d3e
000001c0: d6fe a03e acdd 9cbe 1769 163e efb9 b83d
000001d0: ea03 5a3d c114 58be b2c6 38be 8bb4 fcbe
000001e0: 4a0c 84be 0743 33be 0288 493e a717 dc3d
000001f0: be3e 22bd a710 ccbc 398c 8f3e 18fc 833e
00000200: 3ac6 bcbd 944f acbe 3c2e 0cbe 4a98 99be
00000210: ac5e 553d 4b7f c53d 9438 6dbc bcd1 af3e
00000220: a2fa 543e 08fa 95be e983 473d eec6 1f3e
00000230: 475e 7d3e f776 b7be 6dd5 7dbd 71ac 353e
00000240: 69d0 07bf 5a58 1a3e 1134 da3c ad03 ea3c
00000250: 2cd5 193c d631 41bd d95e 933e abd2 62be
00000260: b370 a63e 3663 b03e 583a 0ebe 1337 48bf
00000270: 272b 833e b4ba fdbb 1504 2abe ca50 ab3e
00000280: 7161 c0be 437e a8bd d290 853e 02d8 283d
00000290: 056a 43bf 035f 4b3e 300f a43e 8b15 b0be
000002a0: 7288 303e fa22 3e3f 0cdb 80bd 3c3d 11bf
000002b0: 58a0 833e 4b85 a6bd 359e ffbb 0758 00be
000002c0: 38d6 24bf 2609 853c 13b8 313f 7045 2dbd
000002d0: e567 743e f556 033f e23b fdbd fd75 e7be
000002e0: 60b0 aebe b038 b8be 33d1 863d 847b 34bb
000002f0: 4159 1bbe 508c b9be ce31 38bd 7652 933d
00000300: ff5d f9bd dc46 b3be 644e 06bc b2e4 d63d
00000310: 755a b2be b66f a43d e2f8 d2bd 1025 cbbe
00000320: b0e1 b3bd 02e1 32be e59b 89be 280f 0e3d
00000330: db64 7ebe c4cc 33be e97a 93bd 63ff be3e
00000340: 975c 94be 5c13 113e 9eda f5bd 5870 5a3e
00000350: 9a6c 4c3e c660 5e3e 2adf 5fbe 2aaf b23c
00000360: 4c4c f8bc 27de 523d fd37 6cbd 40ac e73d
00000370: ef9e 47be 358b 373d 1f5b 163d 8a66 1c3e
00000380: b2e2 29be 3a43 133e 6b76 1ebe 6be0 89be
00000390: 2822 10bf 1348 25bf 2081 9e3e 7fc8 c1be
000003a0: 96a7 91be 5369 1e3e 6944 b8be a680 59bf
000003b0: 8f30 5b3e dc4a 8fbe edf1 0d3e 4dba c3be
000003c0: e73c d53e 1a42 c43e 2976 c6be aa2e 7d3e
000003d0: 38eb 003d f698 29bf e63a 47be e244 6e3e
000003e0: e884 493e b503 8dbe b452 883e 83d9 563e
000003f0: ea0e 5f3e a159 7bbb cc13 2dbd 70c3 063e

functional_1/time_distributed_1/BiasAdd_6/ReadVariableOp:0 f4 [16]
-0.087566905 0.004654322 -0.08090297 0.112889215 -0.03910113 0.0093039395 -0.034885783 -0.029146561
0.003953321 0.14104845 0.10142342 -0.048759457 -0.041749947 0.092293985 0.006398271 0.00017646715
00000000: 4756 b3bd 4883 983b 75b0 a5bd 7632 e73d
00000010: 8228 20bd 8d6f 183c 65e4 0ebd c5c4 eebc
00000020: dc8a 813b 016f 103e 15b7 cf3d ffb7 47bd
00000030: fe01 2bbd a104 bd3d 96a8 d13b 0a0a 3939

functional_1/bidirectional_1_2/lstm_3_1/lstm_cell_1/add_1/ReadVariableOp/resource:0 f4 [40]
0.12986347 0.06188363 -0.08368848 0.18190098 0.26571596 0.1261975 0.10087675 0.321741
0.19956176 0.2319399 0.8167207 0.9495629 1.207158 1.1897678 0.81894255 0.9805478
1.2665125 1.457401 1.0733011 1.2406236 0.012771707 -0.029409932 -0.035367474 0.06807551
-0.014764353 -0.022598648 0.029766276 0.030771459 0.12327498 -0.20382588 0.031180212 0.25372684
-0.12107612 0.028191483 0.08682565 -0.016940713 -0.024696395 0.040292326 -0.071970515 0.08845016
00000000: eefa 043e b079 7d3d de64 abbd 4044 3a3e
00000010: ec0b 883e eb39 013e 7898 ce3d 3dbb a43e
00000020: eb59 4c3e a781 6d3e 9c14 513f 8e16 733f
00000030: 2784 9a3f 504a 983f 38a6 513f 2e05 7b3f
00000040: 151d a23f 1e8c ba3f ee61 893f c1cc 9e3f
00000050: 6c40 513c 19ed f0bc 7cdd 10bd 2c6b 8b3d
00000060: 2fe6 71bc cd20 b9bc 68d8 f33c 6d14 fc3c
00000070: 9877 fc3d bbb7 50be a56d ff3c 7ce8 813e
00000080: c2f6 f7bd d3f1 e63c a5d1 b13d 40c7 8abc
00000090: 1850 cabc 9109 253d 4765 93bd 5c25 b53d

functional_1/bidirectional_1_2/lstm_3_1/lstm_cell_1/Cast_1/ReadVariableOp/resource:0 f4 [10, 40]
-0.1351517 0.122641385 -0.27693695 -0.014732924 -0.48054895 0.5661991 0.38763955 0.12075859
-0.14327255 -0.5877475 -0.23105168 -0.30193698 0.193435 -0.041993897 -0.48340693 0.20492314
0.46671343 -0.010486874 -0.4693342 -0.29168805 0.2626041 0.35636002 -0.27230918 0.3270384
-0.18788357 0.13355283 0.44443652 -0.14403652 -0.41522685 -0.04139571 0.012165973 0.18860127
-0.032225654 -0.32791495 -0.3960795 -0.019056905 -0.14099123 0.09005117 0.20864297 0.22912866
0.5433785 0.21680681 0.09987112 0.0892626 0.086615734 -0.29290456 0.08185022 0.18823309
0.47662136 -0.2972297 -0.45866656 -0.5023592 0.011938695 0.31264037 0.06837902 -0.32283312
-0.08417386 0.1269869 0.6055784 -0.01660913 -0.22441795 -0.2295365 -0.22891414 0.2537673
-0.18833348 -0.40999547 -0.36852628 0.07589991 0.15588436 0.055063594 -0.2200671 -0.4646281
0.054879203 0.36530432 -0.010657969 -0.46868077 0.6377497 0.2288066 0.19696073 -0.06341899
-0.5254506 0.30010536 -0.22982351 -0.36144358 0.4482904 -0.04991022 0.06648793 0.052678324
-0.06506924 -0.2850972 -0.15343188 -0.76512223 -0.21709184 0.10123422 -0.67594916 0.17857336
0.05363351 0.1145353 -0.20171012 -0.015487942 -0.06382599 -0.12642272 0.35129303 0.17555451
0.1272066 -0.119336516 0.0694847 -0.0725708 -0.08013023 0.1607152 -0.45726326 0.121062085
-0.2560876 -0.16688357 0.5538091 0.08199135 -0.023266887 -0.019414458 0.0736791 -0.24342433
0.052073635 -0.13610472 -0.49351758 0.03853104 0.12657239 -0.12685445 0.2583903 0.39024407
0.33167222 0.15668154 -0.16223119 -0.24895118 -0.18682915 0.29000092 -0.2126212 -0.1343514
0.32546765 0.39264643 0.016245538 0.11180894 0.24390158 -0.1460693 -0.09725847 0.29979396
0.33082375 -0.07849702 0.22844632 -0.0076445094 0.11355642 -0.22499216 0.055153154 0.17249776
-0.14335532 0.01767276 0.29979482 -0.04146714 0.11132843 -0.32582015 -0.047800157 0.11865165
-0.54416454 -0.12305772 0.03543198 -0.16345787 -0.96663976 0.3708986 0.3366648 -0.3826135
-0.2181153 -0.3195955 -0.14476816 0.1494209 -0.08933526 -0.2900691 -0.041864607 -0.018641165
0.34223723 -0.24808687 0.01818474 -0.21450335 0.097504824 0.100608386 -0.1708947 0.17695056
-0.3270236 0.52636456 0.36529484 0.27827463 0.06491652 0.49144286 0.35039392 -0.15374033
-0.35112476 0.20964722 -1.1029984 -0.1423653 0.39407355 0.44571647 0.28309292 0.22320499
0.30057696 -0.5244169 -0.14814085 -0.1601177 0.3485777 0.00017162679 0.08237973 0.16826284
-0.21581401 0.20508803 0.07213989 0.24924512 0.44818878 0.076927 -0.21055676 -0.099235445
0.03583545 0.4250348 0.18089828 0.39675045 -0.10636155 -0.20616657 -0.16284032 -0.42976937
0.043537356 0.108659394 0.084430814 -0.22946137 -0.10279416 -0.14843237 0.2576141 0.2865322
0.42146748 -0.071446165 0.21093923 0.013025219 -0.29836255 -0.099584274 -0.26387373 -0.072936565
-0.088167354 0.11714266 -0.28098956 0.010461096 0.41810402 0.091875605 0.5489638 -0.07393255
0.47645363 0.014543516 0.1235118 -0.03232616 0.10727136 0.19885461 -0.060134113 0.10926121
00000000: 3565 0abe 682b fb3d aeca 8dbe 5d62 71bc
00000010: 830a f6be 6df2 103f b178 c63e 4850 f73d
00000020: 0ab6 12be 9f76 16bf d098 6cbe 7c97 9abe
00000030: d313 463e cb01 2cbd 1d81 f7be 5fd7 513e
00000040: 10f5 ee3e 23d1 2bbc 924c f0be 2358 95be
00000050: 0b74 863e d274 b63e 1c6c 8bbe 9471 a73e
00000060: 8d64 40be 13c2 083e 2f8d e33e 4f7e 13be
00000070: 9d98 d4be 8c8e 29bd ca53 473c b120 413e
00000080: 0cff 03bd 78e4 a7be efca cabe 3a1d 9cbc
00000090: 0160 10be bf6c b83d 81a6 553e b4a0 6a3e
000000a0: da1a 0b3f 9b02 5e3e 3b89 cc3d 4fcf b63d
000000b0: 9763 b13d 96f7 95be 17a1 a73d 2dc0 403e
000000c0: b707 f43e 7e2e 98be 58d6 eabe 9d9a 00bf
000000d0: 849a 433c 6612 a03e 4d0a 8c3d 624a a5be
000000e0: 5863 acbd db08 023e 3007 1b3f df0f 88bc
000000f0: d2cd 65be 9e0b 6bbe 7868 6abe caed 813e
00000100: 7eda 40be edea d1be 7aaf bcbe 6971 9b3d
00000110: 26a0 1f3e 5d8a 613d 4559 61be bce3 edbe
00000120: 04c9 603d 2b09 bb3e c39e 2ebc edf6 efbe
00000130: 9043 233f 474c 6a3e 13b0 493e d1e1 81bd
00000140: ee83 06bf 69a7 993e db56 6bbe 220f b9be
00000150: 5286 e53e a96e 4cbd d32a 883d 3ac5 573d
00000160: 0643 85bd 43f8 91be 3f1d 1dbe 0ddf 43bf
00000170: 534d 5ebe e353 cf3d 010b 2dbf efdb 363e
00000180: d0ae 5b3d 7c91 ea3d 198d 4ebe 23c1 7dbc
00000190: 33b7 82bd f574 01be aedc b33e 90c4 333e
000001a0: 7242 023e b466 f4bd ff4d 8e3d 00a0 94bd
000001b0: 511b a4bd 8692 243e 691e eabe 66ef f73d
000001c0: ea1d 83be 87e3 2abe 6fc6 0d3f 15eb a73d
000001d0: 339a bebc 120b 9fbc 11e5 963d 3a44 79be
000001e0: 2a4b 553d 095f 0bbe 56ae fcbe b9d2 1d3d
000001f0: 319c 013e 22e6 01be bc4b 843e 12ce c73e
00000200: f1d0 a93e 2071 203e ef1f 26be 0fed 7ebe
00000210: 2450 3fbe 007b 943e 5fb9 59be 6a93 09be
00000220: b2a3 a63e f408 c93e 5d15 853c 16fc e43d
00000230: 56c1 793e 3193 15be 732f c7bd 987e 993e
00000240: bb61 a93e 0cc3 a0bd d5ed 693e cb7e fabb
00000250: 4590 e83d 5864 66be 46e8 613d 41a3 303e
00000260: bdcb 12be 77c6 903c b57e 993e 73d9 29bd
00000270: 2900 e43d e6d1 a6be 19ca 43bd a3ff f23d
00000280: 5e4e 0bbf b005 fcbd 2021 113d 8061 27be
00000290: b475 77bf 6ce6 bd3e 545f ac3e ebe5 c3be
000002a0: 9e59 5fbe 05a2 a3be 1b3e 14be cb01 193e
000002b0: 68f5 b6bd f083 94be 397a 2bbd 5bb5 98bc
000002c0: b839 af3e 7c0a 7ebe 2af8 943c c4a6 5bbe
000002d0: 9cb0 c73d c50b ce3d 05ff 2ebe 8732 353e
000002e0: a36f a7be d4bf 063f ed07 bb3e 037a 8e3e
000002f0: f4f2 843d 669e fb3e d566 b33e 1b6e 1dbe
00000300: a0c6 b3be c3ad 563e 0d2f 8dbf 36c8 11be
00000310: 02c4 c93e f334 e43e 8ef1 903e d98f 643e
00000320: 39e5 993e 3040 06bf 3cb2 17be e5f5 23be
00000330: c778 b23e b7f6 3339 b4b6 a83d 184d 2c3e
00000340: 59fe 5cbe 9902 523e 14be 933d 1d3a 7f3e
00000350: 0079 e53e e78b 9d3d 319c 57be f43b cbbd
00000360: 31c8 123d 299e d93e 663d 393e e022 cb3e
00000370: 16d4 d9bd 541d 53be 9dbf 26be bb0a dcbe
00000380: 3a54 323d d188 de3d 10ea ac3d ecf7 6abe
00000390: bf85 d2bd a8fe 17be ffe5 833e 59b4 923e
000003a0: 96ca d73e 5e52 92bd 7400 583e ba67 553c
000003b0: fac2 98be d7f2 cbbd 751a 87be c45f 95bd
000003c0: 1691 b4bd 7ee8 ef3d dddd 8fbe 0465 2b3c
000003d0: bb11 d63e 4729 bc3d e488 0c3f f369 97bd
000003e0: bbf1 f33e ed47 6e3c c1f3 fc3d 7068 04bd
000003f0: 16b1 db3d 8ba0 4b3e 304f 76bd 57c4 df3d

functional_1/bidirectional_1_2/lstm_3_1/lstm_cell_1/Cast/ReadVariableOp/resource:0 f4 [24, 40]
0.065563545 0.21270189 -0.3503031 0.028634345 0.6219753 -0.24995296 0.49372464 0.4504304
0.06569619 -0.20490767 0.7463033 -0.20026132 -0.31346375 -0.4521057 -0.76542485 -0.38985452
0.45139372 0.17426261 -0.15828332 -0.05345518 0.49093097 -0.16140646 -0.3271685 -0.0050248774
0.99747944 -0.33662298 0.3283035 -0.32839367 0.43347415 0.021463607 0.43653932 1.045117
0.33731306 0.18183477 0.283385 0.030226111 -0.03620104 -0.08036592 -0.15692486 -0.26135683
0.45652628 1.0122188 0.7232997 -0.09885567 -0.17537697 -0.23725513 0.015675701 -0.05563316
0.27857372 -0.19883013 -1.1206752 -0.5521405 -0.050444577 0.0015253614 -0.9370435 0.08512847
0.034590393 0.109004796 0.14378312 -0.21044926 -0.47451928 1.2016238 -0.00042306408 -0.35548168
-0.57932985 -0.057415042 0.46376345 -0.23621498 0.16940576 0.41708058 0.059627485 1.0716429
0.39864835 -0.2957723 -0.45690203 1.0895718 0.25579435 -0.11631255 -0.6773544 -0.8778009
0.9271576 0.9682805 0.1405602 0.3815831 0.7163235 0.45588613 -0.31177592 0.34238562
0.06712587 0.31532326 0.06307269 1.1158234 0.2122788 0.08526614 -0.3797909 0.6567422
-0.15674566 0.13339876 0.27946195 -0.21025068 -0.15226188 0.32096952 -0.28296864 0.29899406
0.1637595 -0.15521376 -0.053906683 -0.2740485 0.22620414 -0.09993381 0.5696853 0.5351523
0.332588 -0.06295973 -0.13470261 0.833955 -0.2751378 0.0039439513 -0.057544168 -0.31568635
0.28400323 0.105245315 -0.064658225 0.077922694 0.30787402 0.112904325 0.41428056 0.296372
0.05761214 0.1719583 0.008651351 -0.26671246 -0.055408128 -0.08304287 -0.24611075 -0.29554462
0.47729325 0.09083457 -0.3649991 -0.0474122 0.06019769 -0.08372119 -0.06459819 0.041071545
0.12763987 0.12543948 0.4350137 0.19120878 -0.099608846 -0.12308739 -0.108120374 0.2364427
-0.08359295 0.052092977 0.31334853 0.18926547 -0.20354098 0.027411683 -0.24947247 -0.25726655
0.063858666 0.76477885 0.13689685 -0.049256574 -0.20356752 0.56435144 0.116638295 -0.3774891
-0.5571214 0.26163504 0.38078788 0.33003056 -0.28472432 -0.02922889 0.17316902 0.6869511
-0.4660119 -0.43042326 0.14008184 -0.2793375 -0.28255826 -0.42441857 0.025640389 -0.14214316
-0.42645282 0.6985726 -0.15082352 0.042013492 -0.12070588 0.2335309 0.34582895 0.2655996
-0.3675413 0.12877835 0.15795389 0.38184008 -0.19002815 -0.07210101 0.117636554 -0.22407804
0.39294195 0.397746 -0.05689572 -0.12227142 0.10052318 0.02778622 0.2571419 0.2887105
0.116351925 0.27852374 -0.30508557 -0.43739918 0.39785913 0.34440115 -0.17842695 0.34655944
0.14198454 -0.11760643 0.31736094 0.13407513 -0.14305659 0.20458291 -0.30498028 0.18752478
0.481024 0.15252861 -0.07479809 0.2295785 0.31511316 -0.34228754 -0.93306845 0.40715265
0.3364774 -0.17513698 0.3249876 -0.7238279 0.5536891 0.5462349 -0.13818817 0.57413155
0.37969935 2.2200432 1.0016153 0.29395413 0.2593903 0.7813394 -0.38604948 0.3781076
0.42223546 0.030563658 -0.61923647 -0.39588958 -0.39364022 0.5531187 0.34465772 0.04865107
00000000: 2e46 863d 86ce 593e ee5a b3be 9392 ea3c
00000010: c639 1f3f abf3 7fbe 7ac9 fc3e d09e e63e
00000020: b98b 863d 51d3 51be bc0d 3f3f 4e11 4dbe
00000030: 527e a0be 667a e7be e2f2 43bf 039b c7be
00000040: 141d e73e e671 323e 0615 22be d2f3 5abd
00000050: 4e5b fb3e bc47 25be a182 a7be baa7 a4bb
00000060: d05a 7f3f d959 acbe 6517 a83e 3723 a8be
00000070: 53f0 dd3e 72d4 af3c 1582 df3e 65c6 853f
00000080: 4cb4 ac3e e532 3a3e d717 913e c09c f73c
00000090: 8b47 14bd e396 a4bd e9b0 20be 90d0 85be
000000a0: d0bd e93e 6390 813f 2b2a 393f d774 cabd
000000b0: 0596 33be 02f3 72be 546a 803c 99df 63bd
000000c0: 37a1 8e3e 209a 4bbe 4972 8fbf 1459 0dbf
000000d0: f99e 4ebd a3ee c73a 15e2 6fbf d657 ae3d
000000e0: a8ae 0d3d e83d df3d e23b 133e 0380 57be
000000f0: 31f4 f2be cfce 993f b3ce ddb9 b201 b6be
00000100: f64e 14bf 092c 6bbd 6772 ed3e 57e2 71be
00000110: b478 2d3e 968b d53e f33b 743d 982b 893f
00000120: a31b cc3e 786f 97be 10ef e9be 1777 8b3f
00000130: 7af7 823e 4635 eebd 1967 2dbf 8fb7 60bf
00000140: 335a 6d3f 3be1 773f 03ef 0f3e dc5e c33e
00000150: fa60 373f e869 e93e 18a1 9fbe 2b4d af3e
00000160: 4a79 893d 0d72 a13e 412c 813d 4dd3 8e3f
00000170: 9d5f 593e 04a0 ae3d f473 c2be 4220 283f
00000180: ef81 20be af99 083e a315 8f3e f44b 57be
00000190: 8aea 1bbe 1e56 a43e 44e1 90be c015 993e
000001a0: 92b0 273e 5bf0 1ebe 41cd 5cbd 1650 8cbe
000001b0: 0fa2 673e 19aa ccbd e5d6 113f beff 083f
000001c0: f948 aa3e 08f1 80bd 7bef 09be 137e 553f
000001d0: ddde 8cbe 433c 813b 6fb3 6bbd a4a1 a1be
000001e0: df68 913e db8a d73d 886b 84bd ef95 9f3d
000001f0: aaa1 9d3e 623a e73d 951c d43e 12be 973e
00000200: b5fa 6b3d d615 303e 65be 0d3c 898e 88be
00000210: a2f3 62bd 6112 aabd 7504 7cbe a051 97be
00000220: c85f f43e 7a07 ba3d 29e1 babe 4c33 42bd
00000230: da91 763d 0476 abbd 0e4c 84bd a33a 283d
00000240: 07b4 023e 3573 003e 1eba de3e 3ccc 433e
00000250: b9ff cbbd 3e15 fcbd 376e ddbd 091e 723e
00000260: c832 abbd 725f 553d 386f a03e cfce 413e
00000270: 0c6d 50be 778e e03c b675 7fbe 71b8 83be
00000280: 55c8 823d 8cc8 433f b02e 0c3e 43c1 49bd
00000290: 0174 50be 5679 103f 0fe0 ee3d 4046 c1be
000002a0: 829f 0ebf 07f5 853e a1f6 c23e c4f9 a83e
000002b0: 63c7 91be 6d71 efbc 3853 313e 07dc 2f3f
000002c0: 1d99 eebe 7060 dcbe 9d71 0f3e 5305 8fbe
000002d0: 7aab 90be 644d d9be cb0b d23c fa8d 11be
000002e0: 0658 dabe a7d5 323f 7b71 1abe 5716 2c3d
000002f0: a534 f7bd b922 6f3e 7e10 b13e acfc 873e
00000300: 602e bcbe 79de 033e aabe 213e 8b80 c33e
00000310: bd96 42be b2a9 93bd 6feb f03d b774 65be
00000320: b02f c93e 5da5 cb3e 7d0b 69bd 7069 fabd
00000330: 19df cd3d ed9f e33c 1aa8 833e ddd1 933e
00000340: eb49 ee3d aa9a 8e3e 2d34 9cbe c9f2 dfbe
00000350: 31b4 cb3e 5955 b03e 8eb5 36be 3d70 b13e
00000360: 6564 113e a4db f0bd 227d a23e fe4a 093e
00000370: 6d7d 12be 2f7e 513e 6026 9cbe 7f06 403e
00000380: c748 f63e 7630 1c3e be2f 99bd a016 6b3e
00000390: 8356 a13e 5040 afbe 93dd 6ebf 5076 d03e
000003a0: c446 ac3e 1c57 33be c664 a63e c94c 39bf
000003b0: 92be 0d3f 0dd6 0b3f 3381 0dbe 49fa 123f
000003c0: f467 c23e 3015 0e40 ee34 803f 2881 963e
000003d0: cece 843e dc05 483f 47a8 c5be 5297 c13e
000003e0: 3f2f d83e a360 fa3c 4886 1ebf 0ab2 cabe
000003f0: 368b c9be 3099 0d3f fa76 b03e 5846 473d

functional_1/bidirectional_1_2/forward_lstm_2_1/lstm_cell_1/add_1/ReadVariableOp/resource:0 f4 [40]
0.14868765 0.30663708 0.10569168 0.17705001 0.38842502 0.07679487 0.21023943 0.095247045
0.064197004 0.05128082 0.87538403 1.1109546 1.1443778 1.1165658 1.2647746 1.0477184
1.0568525 1.0661165 1.0592303 0.89777154 -0.054709382 -0.1622702 0.053949546 0.03962412
0.30103168 0.03943783 0.17756344 0.015115492 -0.19493125 0.017688105 -0.120676704 0.069549926
0.041594375 -0.07079014 0.07432757 0.08046442 0.0066622286 -0.08126917 0.035531364 -0.009314925
00000000: 9341 183e 89ff 9c3e e174 d83d 994c 353e
00000010: a5df c63e a146 9d3d 0149 573e e210 c33d
00000020: b879 833d d60b 523d 2b19 603f c333 8e3f
00000030: f97a 923f a1eb 8e3f 22e4 a13f a31b 863f
00000040: f146 873f 8176 883f dc94 873f 5bd4 653f
00000050: f216 60bd 292a 26be 33fa 5c3d e74c 223d
00000060: d320 9a3e 9089 213d 31d3 353e f8a6 773c
00000070: 0f9c 47be a5e6 903c 5925 f7bd 3170 8e3d
00000080: dd5e 2a3d 6cfa 90bd 0e39 983d 88ca a43d
00000090: d34e da3b 7370 a6bd 5689 113d a19d 18bc

functional_1/bidirectional_1_2/forward_lstm_2_1/lstm_cell_1/Cast_1/ReadVariableOp/resource:0 f4 [10, 40]
-0.351189 0.2755319 0.07197209 0.37709522 0.28044093 0.18586105 0.20616649 -0.022973858
0.25879753 0.27387124 -0.6059317 -0.101518124 0.25409207 0.014994258 0.24128659 0.28001887
0.0711631 0.19866727 0.21104026 0.065996215 -0.1751534 -0.019045794 0.08107717 0.02532979
0.42392966 0.34485787 0.06550539 0.34019697 -0.15821925 0.42241976 0.28117222 0.39197052
0.20015606 0.040646322 0.06251406 0.12909587 -0.09539399 -0.14278874 0.14122333 0.19097863
0.0444503 -0.25401422 0.058425516 -0.12672813 -0.40141532 -0.35278496 -0.18367867 -0.22146499
-0.24755563 -0.1303363 0.15717383 -0.21175523 -0.17533727 -0.096151315 -0.08388107 0.29971734
0.024299065 -0.1389699 -0.18099277 0.10543685 -0.05599163 0.0419382 -0.33963025 -0.11343548
-0.07593592 0.032579634 0.035393514 0.29526368 0.0071176672 -0.17205077 0.13589278 -0.25843972
0.32962748 0.22292183 0.17904982 -0.13374148 0.03291588 -0.07143713 -0.08983813 0.15710218
0.18865776 0.26025838 0.24314101 -0.20271176 0.08614438 -0.21956828 0.12906331 0.10129048
0.1520239 -0.06690468 -0.036750868 0.5527179 -0.2510221 0.24290939 0.41745242 0.07517206
0.25499508 -0.0182568 0.19856234 -0.38953546 0.16379505 -0.09661518 0.14603063 -0.061498877
0.08342646 -0.1072544 0.077476844 0.042999905 -0.092797905 0.30037615 -0.1084291 0.22682108
-0.13872604 0.14331067 -0.014863771 -0.050051946 -0.009037625 -0.112184994 0.12139283 0.09325654
0.09888462 0.21483423 0.21059832 0.14059468 -0.025332278 0.1793178 0.28093636 -0.42165148
-0.048443 -0.1838813 -0.08303791 0.03915074 0.0048670624 0.14781499 0.106675826 0.20977375
-0.011284171 -0.23409191 0.029667662 -0.20639767 0.10956299 0.009907509 0.15946026 0.31777847
0.46653008 0.06285087 0.047354527 -0.11649157 -0.29429308 0.16188885 0.067211136 -0.13650888
-0.012843812 -0.5456903 -0.017833404 0.2635484 -0.20065565 0.22502768 -0.03638999 0.030390173
0.30313474 0.10832755 -0.0063764467 -0.19259569 0.25450018 0.09298433 0.13673016 -0.03825234
-0.07713724 -0.033725448 -0.067474484 0.18880552 0.25678644 0.06922998 0.4965709 0.1047429
0.2924279 0.02308966 -0.3391158 0.052935317 -0.0059432667 -0.40488592 0.06948266 0.15099946
0.23232569 0.06301716 0.21547695 0.014392408 -0.0712679 0.13850139 0.04367149 0.38865146
-0.115853935 -0.2946832 0.25839803 0.3081681 -0.17771319 -0.23975793 -0.09514467 -0.20585254
0.5259216 0.7606021 0.081691936 0.013930987 0.20345986 0.060089063 0.20288329 -0.065311804
-0.14896806 -0.18128093 0.13730195 0.35064948 0.09129376 -0.023921583 0.5068037 -0.17317022
-0.21587378 0.22510734 -0.030845346 0.05768478 0.14669077 -0.229046 0.3529535 -0.0343434
0.072286166 0.17961654 0.15081182 0.10522591 -0.33663952 -0.1824275 -0.36059907 0.13805741
-0.27678585 -0.030800208 0.27817163 -0.14897636 -0.10264044 -0.06496149 0.28818908 -0.12561217
0.14814359 0.18200836 0.035934076 0.04296978 0.32241142 0.024692422 0.12494995 0.1528775
-0.008079688 0.07946992 -0.2053923 0.04143084 0.34315783 0.24900198 0.50775844 0.01905983
00000000: 0bcf b3be 8412 8d3e 1a66 933d a012 c13e
00000010: f495 8f3e 5c52 3e3e 4f1d 533e ac33 bcbc
00000020: 1c81 843e da38 8c3e 571e 1bbf bce8 cfbd
00000030: 5b18 823e 7aaa 753c d513 773e a25e 8f3e
00000040: f6bd 913d 6f6f 4b3e f01a 583e 0629 873d
00000050: 6a5b 33be ed05 9cbc ca0b a63d 6b80 cf3c
00000060: 4f0d d93e 3691 b03e b127 863d 4c2e ae3e
00000070: 3a04 22be 6747 d83e cef5 8f3e 5cb0 c83e
00000080: b6f5 4c3e c27c 263d 5f07 803d b531 043e
00000090: ed5d c3bd 3637 12be d99c 103e e78f 433e
000000a0: 8511 363d 270e 82be 984f 6f3d 05c5 01be
000000b0: 4f86 cdbe 3ba0 b4be 4316 3cbe b8c7 62be
000000c0: 397f 7dbe e176 05be 2df2 203e 5dd6 58be
000000d0: 9d8b 33be fbea c4bd d7c9 abbd 8d74 993e
000000e0: d50e c73c 204e 0ebe 2b56 39be 46ef d73d
000000f0: 7b57 65bd 64c7 2b3d 04e4 adbe dc50 e8bd
00000100: 4b84 9bbd 3972 053d caf8 103d cd2c 973e
00000110: 523b e93b 142e 30be 7a27 0b3e 3652 84be
00000120: efc4 a83e 9f45 643e d658 373e 87f3 08be
00000130: cdd2 063d a14d 92bd 0efd b7bd 65df 203e
00000140: 802f 413e 9640 853e f5f9 783e ac93 4fbe
00000150: 776c b03d 82d6 60be 2c29 043e 6271 cf3d
00000160: 27ac 1b3e 5205 89bd 1488 16bd ec7e 0d3f
00000170: f885 80be 3dbd 783e 53bc d53e cff3 993d
00000180: b78e 823e 498f 95bc ed53 4b3e 3171 c7be
00000190: e4b9 273e 2ede c5bd 0e89 153e 3fe6 7bbd
000001a0: 7edb aa3d 32a8 dbbd 2eac 9e3d ab20 303d
000001b0: d40c bebd e7ca 993e 1310 debd c943 683e
000001c0: 330e 0ebe 08c0 123e 2d87 73bc 4503 4dbd
000001d0: 8c12 14bc 3fc1 e5bd ce9c f83d 49fd be3d
000001e0: 0584 ca3d 81fd 5b3e 16a7 573e 0df8 0f3e
000001f0: a385 cfbc 169f 373e e4d6 8f3e b4e2 d7be
00000200: 2b6c 46bd 614b 3cbe c80f aabd 875c 203d
00000210: e17b 9f3b d05c 173e db78 da3d eece 563e
00000220: 3ee1 38bc cab5 6fbe 9909 f33c e959 53be
00000230: 9062 e03d 1b53 223c 8d49 233e dcb3 a23e
00000240: 08dd ee3e f5b7 803d d2f6 413d 2293 eebd
00000250: 95ad 96be 31c6 253e fea5 893d fcc8 0bbe
00000260: da6e 52bc 5cb2 0bbf 5c17 92bc d1ef 863e
00000270: ad78 4dbe a86d 663e ac0d 15bd d0f4 f83c
00000280: 7a34 9b3e d6da dd3d 83f1 d0bb ce37 45be
00000290: d94d 823e 926e be3d fe02 0c3e 7cae 1cbd
000002a0: 21fa 9dbd b223 0abd 1030 8abd 3c56 413e
000002b0: 8379 833e 73c8 8d3d 8a3e fe3e 7283 d63d
000002c0: 1cb9 953e 8726 bd3c 96a0 adbe b4d2 583d
000002d0: bcbf c2bb 354d cfbe ed4c 8e3d 9a9f 1a3e
000002e0: c9e6 6d3e 240f 813d fda5 5c3e 22ce 6b3c
000002f0: e8f4 91bd 4fd3 0d3e e0e0 323d 53fd c63e
00000300: d444 edbd b7e0 96be bf4c 843e 36c8 9d3e
00000310: 72fa 35be 1a83 75be 35db c2bd 02cb 52be
00000320: cca2 063f d2b6 423f 1a4e a73d cb3e 643c
00000330: c857 503e f31f 763d a3c0 4f3e 32c2 85bd
00000340: 158b 18be b5a1 39be e298 0c3e 5488 b33e
00000350: 39f8 ba3d 32f7 c3bc e3bd 013f 8953 31be
00000360: 040e 5dbe 8a82 663e 61af fcbc e046 6c3d
00000370: 1b36 163e 098b 6abe 52b6 b43e aaab 0cbd
00000380: c50a 943d 66ed 373e 6a6e 1a3e af80 d73d
00000390: 045c acbe 46ce 3abe 71a0 b8be ec5e 0d3e
000003a0: e0b6 8dbe b850 fcbc 836c 8e3e 428d 18be
000003b0: 2735 d2bd 880a 85bd 858d 933e 7aa0 00be
000003c0: f4b2 173e 6660 3a3e 9c2f 133d 1401 303d
000003d0: 1c13 a53e c347 ca3c c2e5 ff3d eb8b 1c3e
000003e0: ab60 04bc 20c1 a23d 5c52 52be 62b3 293d
000003f0: 62b2 af3e 60fa 7e3e 75fc 013f 5c23 9c3c

functional_1/bidirectional_1_2/forward_lstm_2_1/lstm_cell_1/Cast/ReadVariableOp/resource:0 f4 [24, 40]
-0.8049092 -0.25763994 0.03721859 0.018124504 0.030510224 0.37077832 0.6158738 -0.24888992
-0.13633217 -1.0030893 0.19948083 0.3210039 0.38830703 -0.16780712 0.2961814 0.845661
0.4942193 0.12266585 -0.2444028 -0.07486848 -0.123534076 -0.25387418 0.045452308 0.19968027
0.0018752533 0.18019372 0.6101711 0.30496925 0.30936188 0.17674223 0.24005678 0.28025275
0.56660604 -0.032289285 0.4041372 0.1825358 0.002454747 -0.26612687 0.05583898 -0.80685765
-0.30057433 -0.101110004 0.31485373 -0.71905005 -0.23666553 0.2813802 0.097883634 -0.33583695
0.11648501 0.034191974 -0.01654601 -0.29771796 -0.06828175 -0.87652534 0.41199026 0.37866426
-0.0034741655 -0.12742314 -0.23460393 0.21707821 0.091753274 -0.073552 -0.03135409 0.029140143
-0.22133261 0.28445983 -0.19218348 0.053435948 -0.04703502 0.27526554 0.33924627 -0.3427005
0.1164939 0.3225299 -0.3657061 0.53016734 0.120079696 0.5321518 -0.030408647 -0.46949098
0.07762152 0.08569647 0.2034924 0.08138901 0.21524967 0.2546442 -0.17092961 -0.27143687
-0.05925585 0.32567483 0.6844412 0.13794337 0.3468472 0.03894452 0.17138228 0.08738954
0.010515675 0.046520658 0.05314306 -0.49169946 -0.37257177 -0.102859356 -0.35881636 -0.3058217
-0.15494534 0.23242778 0.37967533 -0.2944628 -0.31275535 -0.09569617 -0.13569064 -0.017508078
0.09976785 -0.40556258 -0.099358864 0.4730165 -0.14467429 0.14896563 -0.26001972 -0.33344316
0.5508399 0.09846478 -0.05587716 -0.0052412194 0.16238676 0.2236363 -0.121562734 -0.11883022
0.32641047 -0.025306009 0.2990213 0.8338074 0.16564134 0.1480357 0.09717688 0.26060092
0.21747017 -0.17657079 -0.06893968 -0.07891422 0.2043668 -0.82950395 0.3786347 -0.26274684
0.22758456 0.19529784 0.1012783 0.20909205 0.04520208 0.19468561 0.124887936 0.23646963
-0.22961646 0.028016746 -0.2510054 0.034274623 -0.3313384 -0.06166444 -0.050651398 -0.19109997
0.06765379 -0.19863857 0.036597293 -0.27154183 -0.48022562 0.21093953 -0.017889103 0.045450438
0.10944169 -0.1512744 0.09734797 -0.0051227766 0.025778377 -0.2158346 0.101649016 -0.21789892
-0.022497537 0.18350083 0.07179156 0.47470412 0.15684748 0.083299235 0.17409965 -0.31646982
-0.35984305 -0.07734399 -0.15333267 0.050620276 0.48220852 0.17294754 -0.07216897 -0.051923707
-0.1435811 0.19532907 -0.10368279 0.029658955 0.39714628 0.013671163 0.3445551 0.09786886
0.3944292 0.1523243 -0.08760187 -0.42678285 -0.35838225 0.49805668 0.27643666 0.19935495
0.13407397 0.5307663 -0.77138126 0.14139502 -0.20280911 -0.3534925 -0.32758448 0.5603831
-0.2588748 0.5152632 0.020518688 -0.03361593 -0.43232307 -0.26023716 0.24857606 -0.23961374
-0.004089912 0.3454708 -0.24950327 -0.0938042 0.20885529 0.29484707 -0.66628057 0.23305593
-0.02754703 -0.13935144 0.43377817 0.2386099 0.36785352 -0.6685883 -0.0054157944 0.45410886
-0.23193358 0.21801034 -0.16682592 -0.3324622 -0.17989403 -0.464474 -0.15425003 -0.5688055
-0.31489593 1.0178845 0.3771621 -0.30629396 0.06605883 -0.049534414 -0.1637609 -0.34184498
00000000: 880e 4ebf 62e9 83be 8572 183d d779 943c
00000010: 94f0 f93c a8d6 bd3e e8a9 1d3f 00dd 7ebe
00000020: a99a 0bbe 3b65 80bf b444 4c3e a05a a43e
00000030: 2ed0 c63e a1d5 2bbe 17a5 973e 3d7d 583f
00000040: 500a fd3e 3c38 fb3d ba44 7abe a554 99bd
00000050: 6fff fcbd ccfb 81be 332c 3a3d fc78 4c3e
00000060: 0fcb f53a b484 383e 2c34 1c3f ee24 9c3e
00000070: ae64 9e3e eafb 343e 72d1 753e 4a7d 8f3e
00000080: 180d 113f c541 04bd 12eb ce3e aaea 3a3e
00000090: d2df 203b c841 88be 6ab7 643d 398e 4ebf
000000a0: e1e4 99be c312 cfbd 8234 a13e aa13 38bf
000000b0: 7358 72be 1111 903e 3777 c83d d2f2 abbe
000000c0: b18f ee3d e20c 0c3d 7f8b 87bc 7d6e 98be
000000d0: 4dd7 8bbd f763 60bf 63f0 d23e 48e0 c13e
000000e0: d3ae 63bb 367b 02be 033c 70be c049 5e3e
000000f0: 24e9 bb3d 6ea2 96bd 256d 00bd 4fb7 ee3c
00000100: 04a5 62be b8a4 913e bfcb 44be a7df 5a3d
00000110: cba7 40bd 9bef 8c3e b0b1 ad3e 7176 afbe
00000120: 5b94 ee3d a422 a53e d43d bbbe 0cb9 073f
00000130: 58ec f53d 1a3b 083f 8e1b f9bc 1f61 f0be
00000140: 08f8 9e3d a281 af3d 5060 503e 48af a63d
00000150: 696a 5c3e b960 823e 2c08 2fbe c6f9 8abe
00000160: 43b6 72bd dabe a63e 8a37 2f3f 0741 0d3e
00000170: f595 b13e 4a84 1f3d d67e 2f3e 4af9 b23d
00000180: f049 2c3c 728c 3e3d 8aac 593d 08c0 fbbe
00000190: bac1 bebe eda7 d2bd c7b6 b7be a994 9cbe
000001a0: fea9 1ebe 8c01 6e3e ce64 c23e d4c3 96be
000001b0: 7821 a0be 5bfc c3bd 7df2 0abe 1a6d 8fbc
000001c0: 1653 cc3d e6a5 cfbe a97c cbbd 382f f23e
000001d0: 7f25 14be 728a 183e 4e21 85be 10b9 aabe
000001e0: d803 0d3f e7a7 c93d 73df 64bd 89be abbb
000001f0: b748 263e ea00 653e e2f5 f8bd 425d f3bd
00000200: 461f a73e 8c4e cfbc 5219 993e 6774 553f
00000210: e29d 293e ac96 173e ac04 c73d 7c6d 853e
00000220: 80b0 5e3e f9ce 34be 3f30 8dbd c79d a1bd
00000230: 8845 513e 5f5a 54bf 68dc c13e c186 86be
00000240: ed0b 693e 28fc 473e ff6a cf3d 3a1c 563e
00000250: d125 393d aa5b 473e 3fc5 ff3d 1825 723e
00000260: 9420 6bbe 6083 e53c c883 80be 8c63 0c3d
00000270: 30a5 a9be da93 7cbd d777 4fbd b6af 43be
00000280: 128e 8a3d e967 4bbe 0be7 153d 8807 8bbe
00000290: 22e0 f5be 8800 583e 2b8c 92bc 3d2a 3a3d
000002a0: f722 e03d ade7 1abe 5f5e c73d f7dc a7bb
000002b0: 2d2d d33c bf03 5dbe 5c2d d03d e520 5fbe
000002c0: c14c b8bc a4e7 3b3e 7407 933d 6b0c f33e
000002d0: a09c 203e ca98 aa3d 2e47 323e 5508 a2be
000002e0: 593d b8be 8766 9ebd 3d03 1dbe 3557 4f3d
000002f0: 09e4 f63e 2919 313e 53cd 93bd f4ad 54bd
00000300: ed06 13be 5804 483e a557 d4bd 56f7 f23c
00000310: c256 cb3e 03fd 5f3c 8769 b03e 786f c83d
00000320: a0f2 c93e e7fa 1b3e 9c68 b3bd 4883 dabe
00000330: e17d b7be 4901 ff3e 1b89 8d3e b423 4c3e
00000340: b04a 093e 4de0 073f 3e79 45bf dbc9 103e
00000350: 31ad 4fbe f8fc b4be 27b9 a7be 4475 0f3f
00000360: 3d8b 84be 4ae8 033f cf16 a83c dbb0 09bd
00000370: 7359 ddbe ce3d 85be b98a 7e3e 4e5d 75be
00000380: ab04 86bb 8ce1 b03e c97d 7fbe 6b1c c0bd
00000390: 29de 553e 32f6 963e 5d91 2abf 37a6 6e3e
000003a0: 4faa e1bc 25b2 0ebe 2c18 de3e 2756 743e
000003b0: 4c57 bc3e 9a28 2bbf fa76 b1bb f580 e83e
000003c0: ff7f 6dbe 1a3e 5f3e 6ad4 2abe 7c38 aabe
000003d0: 2436 38be 89cf edbe b8f3 1dbe 3d9d 11bf
000003e0: 0a3a a1be 0a4a 823f 641b c13e 90d2 9cbe
000003f0: da49 873d 99e4 4abd f0b0 27be 4e06 afbe

functional_1/bidirectional_1/lstm_1_1/lstm_cell_1/add_1/ReadVariableOp/resource:0 f4 [48]
0.081524216 -0.07833358 0.017523928 -0.04784565 -0.21281675 0.059918612 -0.027248092 0.36491838
0.18927479 0.18689038 0.13590083 -0.119952895 0.9762837 0.91060895 1.0296409 0.9075859
0.866432 1.0192494 0.975467 1.1223421 1.0387046 1.0387857 0.9611625 1.0062046
0.016896337 0.031339675 -0.046472322 0.030666105 0.06847545 -0.17608602 0.039205894 -0.13910808
-0.17779686 0.13882934 0.11203257 -0.009213718 0.05893947 0.2027281 0.076031186 0.009843602
0.036866147 0.035484098 -0.12728405 0.038346507 0.17265888 0.067006186 0.14558005 -0.037262768
00000000: 2bf6 a63d 5b6d a0bd 578e 8f3c cdf9 43bd
00000010: a2ec 59be 386d 753d 6437 dfbc 95d6 ba3e
00000020: 40d1 413e 3160 3f3e 9629 0b3e dda9 f5bd
00000030: bbed 793f ab1d 693f 46cb 833f 8d57 683f
00000040: 7dce 5d3f c476 823f 35b8 793f e8a8 8f3f
00000050: 46f4 843f eef6 843f bf0e 763f 50cb 803f
00000060: 306a 8a3c 085e 003d c359 3ebd 7c37 fb3c
00000070: db3c 8c3d e54f 34be 5c96 203d 5972 0ebe
00000080: 6110 36be 4729 0e3e 5571 e53d 22f5 16bc
00000090: 846a 713d f497 4f3e 3db6 9b3d 0f47 213c
000000a0: f500 173d c657 113d c056 02be 3a11 1d3d
000000b0: 7dcd 303e 8a3a 893d f012 153e d8a0 18bd

functional_1/bidirectional_1/lstm_1_1/lstm_cell_1/Cast_1/ReadVariableOp/resource:0 f4 [12, 48]
-0.002055079 -0.019676426 -0.1776184 -0.08979077 0.18858607 -0.0010424259 0.13448668 -0.49817085
-0.5085613 -0.43367115 -0.2116649 -0.10542953 0.06192208 0.43416753 0.19562417 0.24779995
0.5470048 0.020269796 -0.10936828 -0.29520306 0.18768302 -0.028912475 0.26620123 -0.15985544
-0.1587325 -0.18673396 0.08860691 0.251968 -0.2877535 0.33661485 -0.14116937 0.04002334
0.059186235 -0.17204028 -0.012498552 0.05343437 -0.13828124 -0.15865773 -0.17381561 -0.12687162
0.4530521 -0.35427356 0.19693905 0.15323241 -0.5436553 -0.025731226 -0.05117195 -0.33630142
0.2741076 0.9364458 -0.039959848 -0.21334091 0.37781426 -0.09015228 -0.048037335 0.23354596
0.38551834 0.8223491 1.1856911 -0.93233496 0.058308184 -0.61524314 0.34364778 -0.5472424
-0.7189598 -0.23831283 -0.23836023 -0.21585266 -0.7119669 -0.28443682 -0.15986302 -0.37285006
0.74206495 -0.4597217 -0.14322667 -0.015073292 -0.15303695 0.013708436 -0.19217263 0.72685593
-0.15077569 -0.27993754 -0.23572187 0.36978453 0.32332924 -0.08454075 0.96134984 -1.0521096
0.02672774 -0.091100186 -0.07689258 -0.45361346 -0.26625535 -0.100906625 -0.4363285 0.23050477
0.32918328 -0.02291534 0.50083333 -0.43960434 0.038363677 -0.051310606 -0.18875453 -0.17909853
0.12714727 -0.3533709 -0.54382384 0.48598507 0.25279337 0.22431521 0.017786173 0.048941106
0.07507854 0.25861207 -0.06743533 -0.16580644 -0.00026285803 -0.08396935 -0.10038172 -0.25274763
-0.057621814 0.2026451 -0.2687875 -0.13412938 -0.33335605 0.12564139 -0.26232815 0.19805002
0.039987855 -0.3512726 0.050681382 -0.0117804725 0.4976625 -0.41633677 0.14553864 -0.424139
-0.10494841 -0.030126 -0.036844496 0.25708416 0.05286147 -0.19877799 -0.67520285 -0.37405053
-0.28842485 0.048243813 0.52918464 0.4284696 -0.29396406 0.29124174 0.59500486 0.4198261
-0.16903733 0.28030387 0.053297263 0.18732065 -0.3358157 0.34029692 0.24147306 -0.014486221
-0.15430196 0.107044466 -0.058127213 0.38132265 -0.47531575 0.23635055 -0.5438588 -0.46262193
-0.17013706 -0.08044368 -0.051066753 0.10153001 -0.035567712 -0.4691474 0.028674005 -0.14999971
0.12626238 -0.10722306 -0.03204443 -0.11185299 -0.09793382 0.6884353 0.40533426 0.32255185
0.71830916 0.06469838 0.25941727 0.33040872 0.12167486 -0.63981384 0.45042506 -1.0020837
-0.5102073 0.808509 -0.46801025 0.13374661 -0.58817697 -0.5838955 0.54705715 -0.06841249
-0.37374997 0.4949122 0.12277613 0.9227195 -0.2861777 -0.44556466 -0.10164099 0.22606671
-0.6192371 -0.48713782 0.1423209 -0.763797 -0.19335546 0.3662825 -0.5298189 0.16189295
0.37054878 -0.18378751 -0.20513712 -0.17843215 -0.20002486 0.34352463 -0.015067508 -0.27139884
-0.20462127 0.33553672 0.3096479 -0.5309834 0.16845594 0.5415287 0.4430324 0.35110313
0.09143326 0.010863251 -0.065648675 -0.46879724 -0.42941272 0.92340904 1.1357062 0.71385294
-0.14766972 0.008353733 0.09721241 0.14360051 0.07412307 0.2442809 -0.23358034 -0.5938675
-0.038746297 -0.45123094 0.14567974 -0.029502628 -0.05970273 0.22317585 -0.14270777 0.27598178
00000000: 81ae 06bb 7530 a1bc 99e1 35be 39e4 b7bd
00000010: b51c 413e 02a2 88ba e0b6 093e 4010 ffbe
00000020: 1331 02bf 250a debe afbe 58be 70eb d7bd
00000030: 02a2 7d3d 354b de3e b451 483e 45bf 7d3e
00000040: 8208 0c3f d80c a63c 7afc dfbd db24 97be
00000050: fa2f 403e dbd9 ecbc 874b 883e 25b1 23be
00000060: c68a 22be 3037 3fbe 8a77 b53d f301 813e
00000070: 6d54 93be c858 ac3e b48e 10be 84ef 233d
00000080: 446d 723d 542b 30be bac6 4cbc ffdd 5a3d
00000090: 9999 0dbe 2c77 22be b8fc 31be a2ea 01be
000000a0: 72f6 e73e 5863 b5be 64aa 493e f5e8 1c3e
000000b0: fe2c 0bbf 4bca d2bc ae99 51bd b32f acbe
000000c0: d557 8c3e e9ba 6f3f f0ac 23bd 0a76 5abe
000000d0: df70 c13e c2a1 b8bd ccc2 44bd ac26 6f3e
000000e0: a962 c53e 7885 523f bac4 973f 81ad 6ebf
000000f0: 90d4 6e3d 9380 1dbf 9af2 af3e 1418 0cbf
00000100: c00d 38bf 4708 74be b414 74be 7b08 5dbe
00000110: 7643 36bf b4a1 91be 22b3 23be 34e6 bebe
00000120: f8f7 3d3f a560 ebbe 03aa 12be f8f5 76bc
00000130: b8b5 1cbe 5999 603c e7c8 44be 3b13 3a3f
00000140: f164 1abe f953 8fbe 1361 71be 6654 bd3e
00000150: 698b a53e b323 adbd 061b 763f 87ab 86bf
00000160: 22f4 da3c bc92 babd db79 9dbd 0640 e8be
00000170: 9f52 88be 22a8 cebd 7366 dfbe 7109 6c3e
00000180: b68a a83e f3b8 bbbc 9d36 003f d213 e1be
00000190: 3b23 1d3d 122b 52bd de48 41be 9b65 37be
000001a0: e532 023e 08ed b4be 0a38 0bbf 09d3 f83e
000001b0: 226e 813e e3b2 653e 4fb4 913c 7876 483d
000001c0: c7c2 993d cd68 843e 891b 8abd 2ac9 29be
000001d0: 35d0 89b9 1ff8 abbd ee94 cdbd 2368 81be
000001e0: da04 6cbd 3282 4f3e 849e 89be 3659 09be
000001f0: a5ad aabe 23a8 003e e04f 86be a0cd 4a3e
00000200: 4eca 233d 01da b3be 4897 4f3d e202 41bc
00000210: 9fcd fe3e 182a d5be 1508 153e bf28 d9be
00000220: 31ef d6bd cdca f6bc 41ea 16bd 89a0 833e
00000230: 4585 583d 758c 4bbe 18da 2cbf 8d83 bfbe
00000240: 6cac 93be 4e9b 453d a578 073f 5e60 db3e
00000250: 7582 96be a31d 953e 3d52 183f 72f3 d63e
00000260: 1f18 2dbe fd83 8f3e 3b4e 5a3d fcd0 3f3e
00000270: 09f0 abbe 663b ae3e b744 773e 9d57 6dbc
00000280: 5501 1ebe 213a db3d cd16 6ebd b93c c33e
00000290: 965c f3be e105 723e 553a 0bbf c8dc ecbe
000002a0: 6938 2ebe a8bf a4bd 5f2b 51bd f7ee cf3d
000002b0: 73af 11bd 1734 f0be bfe5 ea3c 8699 19be
000002c0: ed4a 013e c497 dbbd 0541 03bd 2e13 e5bd
000002d0: 8791 c8bd 4c3d 303f f987 cf3e 8425 a53e
000002e0: 1ce3 373f 9680 843d 57d2 843e 552b a93e
000002f0: ab30 f93d d7ca 23bf 1d9e e63e 4744 80bf
00000300: f29c 02bf 72fa 4e3f 0a9f efbe dff4 083e
00000310: c492 16bf 2d7a 15bf f00b 0c3f d91b 8cbd
00000320: 285c bfbe 2265 fd3e 0d72 fb3d 5837 6c3f
00000330: e285 92be 0d21 e4be 2729 d0bd 087e 673e
00000340: 5386 1ebf 216a f9be 92bc 113e 3388 43bf
00000350: f9fe 45be 6189 bb3e 36a2 07bf 44c7 253e
00000360: 92b8 bd3e cb32 3cbe 770f 52be ebb6 36be
00000370: 51d3 4cbe 76e2 af3e b6dd 76bc caf4 8abe
00000380: 3d88 51be 78cb ab3e 2b8a 9e3e 87ee 07bf
00000390: b77f 2c3e a0a1 0a3f 25d5 e23e cac3 b33e
000003a0: 5c41 bb3d c7fb 313c d072 86bd 3106 f0be
000003b0: fcdb dbbe 8964 6c3f d25e 913f 11bf 363f
000003c0: bb36 17be 19de 083c 4d17 c73d 030c 133e
000003d0: d6cd 973d c624 7a3e af2f 6fbe b307 18bf
000003e0: 70b4 1ebd be07 e7be 122d 153e 7faf f1bc
000003f0: da8a 74bd 3688 643e fc21 12be 7c4d 8d3e
