Ratings/AccAi/onnx/model_sleep_4LSTM_speed.onnx (onnx, 57702 bytes, 17 tensors)

W0__91 f4 [1, 40, 49]
000000 af 90 9f 3e 04 59 be 3e e0 b1 35 3e e1 05 2f be
       0.31165072 0.3717729 0.17743635 -0.17092086
000010 32 a5 37 bd a7 ed e4 3e 89 44 a1 3e cc 49 c7 3c
       -0.044835277 0.44712564 0.314976 0.024327181
000020 fc 4a f7 3d 13 7e 16 3e 37 b2 a6 3e f1 6e ab 3d
       0.12074849 0.14696531 0.32557842 0.0837077
000030 13 f4 81 3d 5f 43 68 3e c2 9e d1 3e d6 37 2e bd
       0.063453816 0.2268195 0.40941435 -0.042533718
000040 78 2f fd be 70 bc ea bd 7e c6 5f 3e 8e e7 82 3e
       -0.49450278 -0.11461723 0.21853063 0.25567287
000050 8e 9b 12 bd 74 7c 5d 3e 6f da 9f be 22 76 bc bd
       -0.03579288 0.21629506 -0.3122134 -0.092022195
000060 de 34 04 3f 65 44 f9 3e 15 32 2e be 8c 61 32 3e
       0.5164317 0.48684993 -0.17011292 0.17420024
000070 a7 6f c0 3d 5a ca 72 3f de 2c 32 be bb 37 06 bf
       0.09396296 0.94840014 -0.17399928 -0.5242879
000080 de 3a 1b 3e 8e ac 98 be 08 b2 52 bf 46 be 22 be
       0.15159175 -0.2981915 -0.82302904 -0.15892896
000090 e1 23 6d be 48 d4 33 3e 18 05 a5 be 67 1f cb be
       -0.23158218 0.17561448 -0.3223045 -0.39672396
0000a0 a1 65 53 3f af 9e 5f be 43 95 84 3f 0d fc 63 be
       0.8257695 -0.21837877 1.0358051 -0.22264118
0000b0 84 f8 04 3f a9 81 04 3e aa 6c 53 bd fa 6e 31 3e
       0.51941705 0.12940086 -0.051617302 0.1732749
0000c0 ec eb 93 bd 0f 5b 37 be 4f 0d 8f bd 88 f2 9e bd
       -0.07222733 -0.1790583 -0.0698496 -0.07761103
0000d0 4a b3 14 be 96 43 14 be f4 be 79 bd 66 96 fe be
       -0.14521518 -0.14478907 -0.060973123 -0.4972412
0000e0 9f 53 3a be b1 c0 ac be 07 b6 94 be 3a ae d0 3e
       -0.18195961 -0.33740762 -0.29045126 0.40757924
0000f0 7a e4 df bc 77 2f 6c 3d 5c b2 d3 be b7 fa 0e bf
       -0.027330626 0.057662454 -0.41347015 -0.5585131
000100 45 95 c5 bf 72 d8 0f be b4 62 01 3e d3 33 d4 be
       -1.5436178 -0.14047411 0.12635309 -0.4144579
000110 82 cc 20 3f 4e 8e 7a be 14 99 73 3e 21 bf dd bd
       0.62812054 -0.24468347 0.23788863 -0.108274706
000120 3c c6 98 3e cc c8 d8 bd 74 b0 8f be 14 29 9d 3d
       0.2983874 -0.10585174 -0.2806431 0.07673851
000130 a1 c3 15 bf 9b 35 3d 3e 81 4c 8f be 73 7c e4 3e
       -0.5850163 0.1847748 -0.27988055 0.44626197
000140 bf 2f d3 3e 63 d8 35 be 2b f9 7a be 46 14 81 3f
       0.41247365 -0.17758326 -0.24509113 1.0084312
000150 f6 4c 2f be 3e 27 81 bd e8 18 27 bc 2d e1 92 3e
       -0.17119202 -0.06306313 -0.010198809 0.2868742
000160 90 95 9f 3f c3 b2 aa 3e e2 f8 be bf da 93 1b bf
       1.2467518 0.3333951 -1.4919703 -0.6077248
000170 14 42 71 be 78 cf a3 bf 15 96 b5 be 82 c8 91 3e
       -0.23560363 -1.279769 -0.35466066 0.28473288
000180 69 e9 85 3d 60 94 86 3d 48 df 12 3d 15 ed 1e 3f
       0.0653866 0.06571269 0.03585747 0.6208051
000190 3d cf 94 3e 49 35 dd bd 9a 7d d8 be fd bb 33 3e
       0.2906436 -0.10801179 -0.42283326 0.1755218
0001a0 83 9f 04 bf 1e 42 43 be 53 29 16 3f d3 42 1d 3f
       -0.51805896 -0.1906819 0.58656806 0.6143009
0001b0 e4 d3 4b 3d 2e 81 17 bf 85 5a 95 3e 06 8f 06 3e
       0.04976262 -0.5918149 0.29170623 0.13140497
0001c0 61 e2 42 be c8 97 82 3f b6 67 2c 3f 90 6c f0 3e
       -0.19031669 1.020257 0.6734575 0.46957827
0001d0 a5 38 62 be 7b 5f a2 3e 39 30 71 be f0 8b b1 3c
       -0.2209192 0.3171347 -0.23553552 0.021673173
0001e0 ad c8 65 3e 35 22 dc bd e4 e5 c3 3e 94 43 cb bc
       0.22439833 -0.10748712 0.3826133 -0.024812497
0001f0 dd 87 50 bf e8 3d c3 3c 25 f2 49 3e 49 e1 9b be
       -0.8145731 0.02383323 0.19721277 -0.30445316
000200 88 07 0c be e3 b1 21 b9 30 4d 85 3d bf 4d 77 bd
       -0.13674748 -0.00015420424 0.06508863 -0.06037688
000210 36 d0 96 be 5c 76 be bc 79 09 13 3e 35 46 5c 3d
       -0.29455727 -0.023249798 0.14359082 0.053777892
000220 c7 7f 80 be 6a c5 9d be 64 c6 a5 3e 9d 13 ae 3c
       -0.25097486 -0.30814677 0.32377923 0.021249587
000230 bd 58 df 3e 90 6a 97 3c 1d e5 c3 3d 60 5e 50 3e
       0.4362239 0.01848343 0.09565184 0.20348501
000240 90 4b 7b be 1b d8 35 3e 7f 24 8a 3e 3b d1 19 3f
       -0.24540544 0.17758219 0.2698097 0.60084885
000250 05 c4 b6 3d 55 cf 91 bd c6 cf 82 3e 86 16 25 3e
       0.089241065 -0.071196236 0.25549144 0.16121873
000260 d7 8a a5 3e 90 f2 f5 3d c2 11 7a be e4 79 60 3f
       0.3233249 0.12009156 -0.24420837 0.8768599
000270 1f 5f b7 bd 38 e4 56 be 8c 1b ea 3d b3 28 8d 3f
       -0.0895369 -0.20985496 0.114310354 1.1028045
000280 ad db 0f 3f e9 89 87 3f 2f c8 56 bd 9c b7 cd 3e
       0.56194574 1.0588962 -0.052437004 0.40179145
000290 5a 00 a3 3e 20 a3 f9 3e 78 4b 28 3f 23 1f 93 bf
       0.31836206 0.48757267 0.65740156 -1.1493877
0002a0 c0 b5 71 be 32 fe 9b be 20 2a d3 3e 22 86 0e bf
       -0.23604488 -0.30467373 0.41243076 -0.5567342
0002b0 75 87 b8 be a4 0b 8e 3e ed 73 14 bf ea 76 94 be
       -0.36040846 0.27743256 -0.5798939 -0.28996974
0002c0 ca 68 44 be 71 20 0f be 0c 23 a2 be 4e 8e 72 be
       -0.19180599 -0.13977219 -0.31667364 -0.23687097
0002d0 db 16 bd be e0 0e 3e be 22 da 6d bf 69 db e3 be
       -0.369315 -0.18560362 -0.9291097 -0.44503334
0002e0 86 ec 84 3e 1a 36 9a 3e 09 5e e4 be 74 e5 ab be
       0.25961703 0.301194 -0.44602993 -0.33573496
0002f0 55 1b b0 3e ba 5d 31 be b8 f0 8b bc a0 0f 7d bd
       0.34395853 -0.1732091 -0.017082557 -0.06178248
000300 79 da d4 3d 9a 68 13 be d7 b2 78 3e 60 12 d7 bd
       0.10393233 -0.14395371 0.24286972 -0.10501552
000310 95 88 82 be 14 24 7c 3d 8d 79 b6 3e c4 0f 8b bd
       -0.2549483 0.061557844 0.3563961 -0.067901164
000320 26 6c 87 be 4e 58 c3 bd 64 5c 82 bd 58 c5 91 be
       -0.26449698 -0.09538327 -0.06365278 -0.28470874
000330 9d ab 28 3e 67 af 8d be 2c 12 2e 3d f2 9b 07 bf
       0.16471715 -0.27672884 0.0424978 -0.5297233
000340 66 23 85 3e 79 e4 a1 3c 7e bd b6 be 9a 5d 8d 3e
       0.2600357 0.019762265 -0.35691446 0.27610475
000350 09 8c 9f 3f f4 b6 f9 3e ea 14 f4 be 5f 87 df 3d
       1.246461 0.48772395 -0.47672206 0.10914492
000360 7d 88 79 bf 24 48 80 3d 6e f6 22 3d 9d 62 b0 3c
       -0.9747389 0.0626376 0.039785795 0.021531397
000370 24 23 8e be bf 1d 35 be 56 1c 60 bf e7 1c cb be
       -0.27761185 -0.17687128 -0.8754324 -0.39670488
000380 88 26 37 be 2c 94 34 bf 80 b1 d7 be 05 4f ab bd
       -0.17885792 -0.7053859 -0.4212761 -0.08364681
000390 c8 19 6d be 53 f3 c5 bb bd 95 70 3e 3c 5b 74 bd
       -0.23154366 -0.0060409694 0.2349462 -0.05965732
0003a0 7c 77 d1 be 97 aa 66 be d3 f4 1f bd b4 3c 1c 3e
       -0.40911472 -0.22526012 -0.039051842 0.15257531
0003b0 5a e8 0c bf 0a 26 02 bf ba 50 cb be 04 dc 24 3e
       -0.5504204 -0.50839293 -0.39710027 0.16099554
0003c0 f9 76 66 3f b0 7b 15 3e 18 b7 ae 3e e5 63 b3 be
       0.9002529 0.14597964 0.34124064 -0.3503715
0003d0 73 2b df bd 49 97 90 3c a2 2c 9e be 30 b3 8f be
       -0.10896959 0.017650263 -0.30893427 -0.28066397
0003e0 b4 b2 76 be fb af 9c be 4d 7f 50 be 74 f9 8e bd
       -0.24091607 -0.30603012 -0.20361061 -0.06981173
0003f0 02 33 01 be ff 3b 28 bd 36 29 de be 90 f7 d9 bd
       -0.12617114 -0.04107284 -0.43390816 -0.10642922

W0__70 f4 [1, 48, 49]
000000 1a 47 aa 3c 6a 80 ad be b5 c1 0e bd 47 52 dd bc
       0.020785857 -0.33887035 -0.034852702 -0.027016772
000010 64 6f 33 bf df a2 9a be 07 b1 2b 3e 4b b9 2b bf
       -0.70091844 -0.30202386 0.1676675 -0.6707961
000020 79 29 8a be e3 bd 32 3e b0 ca b5 bd 20 88 89 be
       -0.26984766 0.17455249 -0.0887655 -0.26861668
000030 e3 4f 08 bf e8 cb 90 3e 41 d0 1e be 54 41 ac be
       -0.532469 0.28280568 -0.1550913 -0.3364359
000040 59 32 75 bd e1 e2 fc b8 c5 d1 50 be f5 e4 0a 3e
       -0.05986247 -0.00012058556 -0.2039252 0.13563903
000050 af 27 bc bc a9 d9 6b be 68 8a 6b bf 98 7e 77 3c
       -0.022968141 -0.2303225 -0.92008066 0.015105866
000060 3a ea 82 be 74 d2 61 be dd c8 06 bf 75 d8 d1 3d
       -0.25569326 -0.22052938 -0.52650243 0.10246364
000070 0d 46 8f 3d 47 16 cb be ce 9e 61 3e ba 62 24 bc
       0.06995783 -0.39665434 0.22033235 -0.010033304
000080 65 6b 1c 3f 7a db fe 3d b2 60 73 3d c2 66 77 bc
       0.6110137 0.124442056 0.059418388 -0.015100183
000090 56 55 51 bd d4 f9 1a be b5 27 4d 3d 4c cd f7 3e
       -0.051106773 -0.15134364 0.050086696 0.48398817
0000a0 9f ea 2b 3e 18 7b 2d be 5a 28 06 bf c2 ef 41 be
       0.1678872 -0.16941488 -0.5240532 -0.18939117
0000b0 f2 57 0c 3e 89 40 1b bd 98 7b 33 bc 68 b6 13 3e
       0.13705423 -0.037903342 -0.01095476 0.14425051
0000c0 f2 5e 6d 3e 1d d5 e3 be b0 dc 1d 3e 68 52 04 3d
       0.2318075 -0.4449853 0.15416217 0.03230515
0000d0 52 ed a3 be 71 de 82 3f f6 88 ec 3e 52 60 1b 3f
       -0.32017 1.0224134 0.46198243 0.6069385
0000e0 bd fc aa be 1d 1f 1a 3e 1e 16 cd 3c 1d 4b 28 be
       -0.3339595 0.15050931 0.02503496 -0.16434903
0000f0 c0 bc b3 bd 01 41 d5 bd e6 cd 0b be 4b f6 ce bd
       -0.087762356 -0.10412789 -0.13652763 -0.101055704
000100 6c b4 bf 3d eb 46 1a bc 1b 19 ea bd 46 a9 05 3f
       0.093605846 -0.009416322 -0.1143057 0.52211416
000110 2f 83 88 3e 13 67 3a be 24 ac 8a bd 40 1a 40 3e
       0.26662585 -0.18203382 -0.067711145 0.18760014
000120 09 d4 d2 3d ad c3 ab be b6 eb 9b 3d b2 4c 3d 3e
       0.10294349 -0.33547726 0.07613318 0.18486288
000130 73 48 cc 3e 30 2d 10 3e cb 5c 3c 3f fd e9 ae 3d
       0.39899024 0.14079738 0.7357909 0.085407235
000140 00 28 cb 3d 27 c6 9a 3d 89 e5 35 3e f2 9b c4 3d
       0.09919739 0.07557326 0.17763342 0.09600057
000150 9a 0f 60 3e e4 1e 17 3f 95 f2 32 3f b3 01 66 be
       0.21880952 0.5903151 0.699014 -0.22461586
000160 fc af 4b be 88 08 d8 3d 65 2a 21 3e 17 57 69 3e
       -0.19891351 0.10548502 0.15738828 0.22787128
000170 00 52 bf bd 75 87 6c bb 7b 78 07 3e ac cb 05 3c
       -0.09341812 -0.003609148 0.13229553 0.008166235
000180 37 99 83 bd 77 7d 3b 3d 3c f2 00 bf f1 65 10 3c
       -0.06425708 0.04577395 -0.5036962 0.008813367
000190 66 e5 b3 3d ad 6c 84 be 92 be e9 be 44 2b 87 3c
       0.08783989 -0.25864163 -0.45653206 0.016500123
0001a0 2d c3 37 3d 6b 26 dc be c4 4e 8c 3c 21 15 fc bc
       0.04486387 -0.4299806 0.017127402 -0.030771794
0001b0 d1 f7 5f bf d6 98 17 3f 2f 9d 95 be 7d d7 51 be
       -0.8748751 0.59217584 -0.29221484 -0.20492359
0001c0 f7 c6 63 3f 73 c2 79 bb 8e 75 f7 3c d3 c9 69 3d
       0.8897547 -0.0038110286 0.030207422 0.05707724
0001d0 0b e7 45 3f d3 4e 44 be 36 ab 50 3d 94 ce 45 be
       0.7730567 -0.19170694 0.05094453 -0.19317085
0001e0 ae f9 16 be 86 e5 15 bf 5a 77 b6 be 26 6f 28 3e
       -0.14743683 -0.5855335 -0.35637933 0.1644865
0001f0 73 52 45 bf 68 6e 8a 3e 28 ba 3f be 52 be c8 bd
       -0.7707893 0.27037358 -0.18723357 -0.09801926
000200 af f1 71 3d cd 4b c9 be 31 2e 09 3f d5 16 47 3e
       0.059068378 -0.39315644 0.5358611 0.19442303
000210 7e 94 5c 3e 81 21 03 3f f4 7b 10 bf 61 0b 15 3f
       0.2154102 0.51223 -0.5643914 0.5822049
000220 9b 25 1d bd 44 1a 5b be ef 93 a9 bc 5f a4 d2 3e
       -0.03836594 -0.21396738 -0.020700423 0.4114103
000230 db 41 b2 bd fe 58 b8 bd 97 c3 de bd af 67 4c 3e
       -0.08703967 -0.09001349 -0.108771496 0.19961427
000240 ec 66 8c be 2e 9f 7b bd 92 0c 52 be 16 0d 32 3e
       -0.27422273 -0.061431102 -0.20512608 0.17387804
000250 7e e7 75 3e 8a 4a a0 3e fb 88 1e be 53 14 1b 3f
       0.24014089 0.3130687 -0.15481941 0.6057789
000260 3e 97 b6 3e 9e 9b 12 be 39 e9 97 be 46 b2 3e be
       0.35662264 -0.14317176 -0.29670122 -0.18622693
000270 22 a4 d7 3d a3 be 68 be 4a 70 b4 3d 2a 13 a1 be
       0.10529353 -0.22728972 0.0881048 -0.31459934
000280 0f 82 a2 3e c4 c1 01 3f 87 6e 8c 3e d1 b8 5b be
       0.31739852 0.5068629 0.27428076 -0.2145722
000290 c3 87 1a be 87 cc 1a 3f 66 dc b3 3d f7 21 8e bb
       -0.15090851 0.60468334 0.08782272 -0.004337545
0002a0 eb ee 6d 3e 7a 94 30 bd 5f a4 13 be c0 e6 7d 3e
       0.23235671 -0.04311035 -0.14418171 0.24795055
0002b0 00 ae 91 bc b0 f5 09 3c fe 53 3b 3d 00 da 58 3e
       -0.017783165 0.008420393 0.045734398 0.2117691
0002c0 45 de d5 3e 79 a9 37 3f c8 17 a1 bc 64 e6 9c bc
       0.4177114 0.7174297 -0.01966466 -0.019152828
0002d0 69 d7 05 3f 51 f8 bf 3e be 4a 72 3e 86 b4 21 3f
       0.52281815 0.37494138 0.23661324 0.6316608
0002e0 65 f0 b0 be 06 3b 6a 3d 87 bd 00 3f ad be 1f 3e
       -0.34558406 0.057185195 0.50289196 0.15600081
0002f0 52 3a aa bd fa 29 21 be 2c 27 5e be 4b 71 5c 3e
       -0.08311905 -0.15738669 -0.2169463 0.21527593
000300 26 2f 3d 3e 02 94 e8 be a9 b3 d2 3b 2f 31 8d 3d
       0.18475017 -0.4542542 0.0064301086 0.06894147
000310 2a d0 ef 3c b0 2a ce be f3 31 36 3e 3d e0 7d 3e
       0.029274065 -0.40266943 0.17792492 0.24792571
000320 03 c4 76 bf a9 5e 60 be de 5a fb 3d bf 5b 08 bf
       -0.9639284 -0.2191111 0.12273191 -0.53264993
000330 b4 31 40 bf ee fe be be 4f c1 60 be 9a 28 a9 be
       -0.7507584 -0.3730387 -0.21948741 -0.3303879
000340 da 10 43 bd 6a 8c cd 3d 5d b8 96 be ed bd a3 3e
       -0.047623493 0.100365475 -0.29437533 0.3198084
000350 de 32 0a be 1f 38 7e be 29 12 87 3d 67 b5 75 3e
       -0.13495967 -0.24826096 0.06595261 0.23994981
000360 d7 ce 53 bf 15 88 4f 3e d9 30 c8 3e 95 3f 63 3e
       -0.8273749 0.20266755 0.39099768 0.22192223
000370 00 de 5e 3d 7a 9b 0d 3e 5b bd 12 be d8 8b d6 3e
       0.054410934 0.13828841 -0.14330046 0.41903567
000380 9f 24 a0 3e 2a 68 80 3d f6 ec 49 3e cf 1b 48 3f
       0.3127794 0.06269868 0.197193 0.7816743
000390 64 0c 1c 3e 90 3e 9e bd b6 1b ab 3f 3e 8c 4e 3e
       0.15239102 -0.077267766 1.3367832 0.20170686
0003a0 33 29 a4 3e bb bd c8 bd 22 9d be 3e d0 67 00 3f
       0.32062683 -0.09801813 0.37229258 0.50158405
0003b0 e1 b4 90 3e aa ff 11 3f a5 ee b2 bf 20 83 d8 bd
       0.28263 0.5703074 -1.3979079 -0.10571885
0003c0 8b c2 27 be c4 30 05 3e 4a a1 34 3e 34 d4 ac 3e
       -0.16382806 0.13006884 0.17639652 0.33755648
0003d0 93 33 f3 3e 2a 24 43 3e 37 29 5c 3e b8 58 fd 3e
       0.47500286 0.19056764 0.21500097 0.4948175
0003e0 d8 19 f2 3e 4d 71 5d bd 58 39 84 3f e0 b4 b6 bd
       0.47285342 -0.05406313 1.033 -0.08921218
0003f0 87 86 8f be d6 d6 26 bf cb 59 0c be d0 43 2c be
       -0.28032324 -0.65171564 -0.13706128 -0.16822743

W0__134 f4 [1, 32, 22]
000000 20 a3 d6 3d c9 8a 16 3f 48 3b 92 be f0 a1 87 3d
       0.104803324 0.5880552 -0.28560853 0.06622684
000010 40 60 cb 3e ff 13 eb 3e 7f fa 1a 3e 91 30 55 3e
       0.3972187 0.45913693 0.15134619 0.20819308
000020 4d 11 3e 3e dd 4b d5 bd 15 ad 1e be cc 5c 31 3c
       0.18561287 -0.104148604 -0.15495713 0.010825347
000030 04 56 7f 3d 30 2a 08 3f b6 92 3e 3e 09 52 d0 3d
       0.06233789 0.53189373 0.18610653 0.10171897
000040 db ed 83 be e5 5d 21 bd 56 c5 57 bc 50 d3 b1 bd
       -0.25767407 -0.039396185 -0.013169607 -0.08682883
000050 69 d0 e8 3e a7 4a b8 bd 1c 89 b1 3e ee f9 39 be
       0.45471504 -0.08998614 0.3467492 -0.18161747
000060 57 4c 08 3e 76 11 ac 3d a7 9b 4f bf e2 65 38 bf
       0.13310371 0.08401768 -0.8109688 -0.7203046
000070 59 02 d6 be 0f eb c6 be a5 5e a1 3e 3e f0 b9 3f
       -0.41798666 -0.3885121 0.3151752 1.4526441
000080 6b 4c 4c be 7b 76 83 3f 65 cf 9f 3e d3 b9 89 3e
       -0.19951026 1.0270532 0.31212917 0.26899585
000090 c0 78 66 3e 9a 31 77 be a7 65 fc be 38 1a f7 3e
       0.22507 -0.24140015 -0.49296305 0.4826219
0000a0 9a f9 76 3e 96 e2 cf be f8 a6 e5 bd 35 4a 4b be
       0.24118653 -0.4060256 -0.112134874 -0.19852526
0000b0 56 4b 5a 3c ca 83 54 3e 4b 55 e1 be 8f 54 a2 bb
       0.013323626 0.20753399 -0.44010386 -0.004953928
0000c0 b8 f2 80 bf 15 4c 46 bf 03 5c 99 3e 4f 2c 56 3d
       -1.0074072 -0.7745984 0.29953012 0.05228835
0000d0 16 46 08 bf 44 86 4a 3f 6f 32 3f be 3a a0 d0 3e
       -0.5323194 0.79111123 -0.18671583 0.40747243
0000e0 f8 71 3a be 66 eb 1c bd aa dd 83 be a8 60 40 3d
       -0.18207538 -0.03831043 -0.25755054 0.04696718
0000f0 db 4b 49 3e 23 2f b0 3d f2 13 56 be 76 d2 49 3e
       0.19657843 0.086027406 -0.20906046 0.1970919
000100 1c 9d 19 bf df c5 96 bd 41 50 c3 3d a8 8a 2d be
       -0.60005355 -0.0736196 0.095367916 -0.16947424
000110 79 d4 07 bd 03 90 36 3e 58 46 1f bf b7 10 a4 be
       -0.033161614 0.17828374 -0.6221671 -0.32044002
000120 80 fa 97 be 84 98 23 3e b6 4e b5 be 34 ff b1 3e
       -0.29683304 0.15976149 -0.35411614 0.34765017
000130 91 0c bd bd 64 9a be 3e 5b 9f 8c 3e 3f 63 08 be
       -0.092309125 0.37227166 0.2746533 -0.1331911
000140 62 6d a0 be 15 80 91 be 86 9f 8a be cb a3 a3 be
       -0.31333452 -0.2841803 -0.27074832 -0.31960902
000150 38 3e 4f 3e 23 36 7c 3e b2 3c f5 be 47 85 20 bd
       0.20238578 0.24630027 -0.4789787 -0.039189603
000160 57 d4 64 be 36 c6 83 bd 07 2e 32 be 7a 81 69 3e
       -0.22346626 -0.0643429 -0.1740037 0.22803298
000170 2e e1 d9 bd ba a8 86 3d 2b 99 6d bd 69 21 01 be
       -0.10638653 0.06575151 -0.0580074 -0.12610401
000180 25 c1 1d 3d 17 a3 8c bd ed 8c a5 3e 68 24 a9 bd
       0.038514275 -0.068670444 0.3233408 -0.08258897
000190 9c 00 b0 3d b8 9a 20 bd 5a fe 5c be 26 5f 3a bd
       0.08593866 -0.03921005 -0.21581402 -0.045500897
0001a0 92 62 a5 be 24 f2 2f 3d 1c 74 c5 bd 6e b4 af 3e
       -0.32301766 0.042955533 -0.09641287 0.34317344
0001b0 a7 1d a1 be 97 7a 0f bd 7d 03 a9 3d a3 24 9e bd
       -0.31467935 -0.03502902 0.082526185 -0.07721832
0001c0 99 1e 0c 3e 5f 7c bf 3d 8c f1 07 bf d0 c9 f6 be
       0.13683547 0.09349894 -0.53102946 -0.48200846
0001d0 86 2e 4a 3e 9d a0 b8 be 53 d7 44 3e 8f c5 0b 3f
       0.1974431 -0.36060038 0.19222765 0.54598325
0001e0 6e 75 3a 3d 1b a7 15 3e de 8a 8e bd cc 65 87 bd
       0.045522146 0.14614527 -0.069600806 -0.06611213
0001f0 2f a4 0b 3f 4c 8c 71 be 03 05 d7 3e 67 a2 be be
       0.545474 -0.23588675 0.4199601 -0.37233278
000200 a3 02 e1 3e 0f 64 74 be ff 72 00 bd a8 7b 06 bf
       0.43947324 -0.23866294 -0.03135967 -0.52532434
000210 d3 f6 95 3c 2d f1 9b bc 88 eb 01 be 46 6a ab bd
       0.018306172 -0.0190359 -0.12687504 -0.083698794
000220 6a 37 7e be df f2 0f be 0b 87 07 3e a6 59 95 3e
       -0.24825826 -0.14057492 0.13235109 0.2916996
000230 59 7c a1 be b4 22 1d 3e df 40 49 3e 91 7b a5 3e
       -0.31540182 0.1534527 0.19653653 0.32320836
000240 df 7c 89 bd e5 cb b8 be 8f c7 04 3e 2e 2a cb be
       -0.067132704 -0.3609306 0.1296675 -0.39680618
000250 de 47 37 be db 5d 8f 3e 49 f6 75 be 78 69 60 be
       -0.17898509 0.28001294 -0.24019732 -0.21915233
000260 dd 61 15 3e e6 14 85 3e 67 d5 b8 3f db dc 40 3c
       0.14588113 0.25992507 1.4440125 0.011771406
000270 57 a4 54 3f 7c 3e 4a 3e df 93 b1 be a6 7b f8 be
       0.8306326 0.19750398 -0.3468313 -0.48531836
000280 a3 50 2f bf 47 09 6e bd ab 04 d4 3e b4 d1 62 3f
       -0.68482417 -0.058114316 0.4140981 0.8860123
000290 90 1e 1b bf 2f d1 46 3f e3 9c 03 3f 71 ae 10 3f
       -0.6059351 0.7766294 0.51411265 0.56516176
0002a0 bb df c0 3d 78 51 b3 bf 0f f6 01 bf d1 b5 4a 3e
       0.09417673 -1.4009237 -0.5076608 0.1979592
0002b0 cb 2e 1f 3e 1a 20 50 be ea 29 b2 3d bd 5b 02 3d
       0.15545194 -0.20324746 0.08699401 0.03182577
0002c0 6c 54 aa be 99 15 cb 3e 84 ba 04 3e 8f 87 3c 3e
       -0.33267534 0.39664915 0.12961775 0.18411086
0002d0 61 d1 ba 3e ec 61 c0 3e 46 d3 c8 3e 1d 87 84 3e
       0.36487868 0.37574708 0.3922369 0.25884333
0002e0 92 17 c2 bc 2e 14 07 3e 10 fc 26 3e f2 25 51 bd
       -0.02369288 0.13191292 0.16307092 -0.051061578
0002f0 ad 1c cb be e3 39 09 3d 40 fe 01 be 6b 03 82 3f
       -0.39670315 0.03350247 -0.12694645 1.0157293
000300 15 62 09 3f cf c1 8c bd 43 7c b5 be 7c 82 35 bf
       0.53665286 -0.068729036 -0.35446367 -0.7090223
000310 f8 50 a2 bd 3f 42 95 3e fb 08 01 3f 64 72 37 be
       -0.079256 0.29152104 0.5040433 -0.1791473
000320 7e a3 ab bd a8 27 c6 be 70 31 45 bf a5 54 c2 bd
       -0.08380793 -0.3870213 -0.7702856 -0.09488801
000330 3c 1a 84 3f b6 39 84 3e 6c 3d 63 be ec 0c 9e 3f
       1.0320506 0.2582528 -0.221914 1.2347693
000340 ad 0a 02 bf a8 82 13 3f ea 46 68 be 39 26 62 bf
       -0.5079754 0.5762124 -0.22683302 -0.88339573
000350 7a 23 e1 3d c1 ae e5 3c 23 53 15 bf 8d ba 09 be
       0.10993095 0.02803743 -0.5832998 -0.1345007
000360 f4 5c 1e 3f a6 bd 2b 3e 3e 44 a8 bd f3 f4 93 be
       0.61860585 0.16771564 -0.08216141 -0.2889782
000370 30 64 9c bc 3a e3 ad be 8a d7 0a bf 4f 37 f0 3c
       -0.019090742 -0.33962423 -0.54235137 0.029323248
000380 e2 a6 81 3b be 56 11 be d1 9a 0a 3f 75 b9 b1 3e
       0.0039566616 -0.14193246 0.5414248 0.34711805
000390 6f 85 50 3e 35 3a 84 3d ee aa 00 3d 59 76 cd be
       0.20363401 0.064564146 0.03141301 -0.40129355
0003a0 5c 20 24 be 0b be 40 bf b3 d9 b7 3d dd bb 82 be
       -0.16027969 -0.7528998 0.0897707 -0.25533953
0003b0 09 17 05 bf 6a a4 a0 3c 7a 25 b0 3e d8 09 62 3e
       -0.51988274 0.019609649 0.34403592 0.22074068
0003c0 d7 bc 81 be 58 09 5a be ac b7 b7 be ec 33 25 bd
       -0.25339386 -0.21292627 -0.35882318 -0.04033272
0003d0 91 c3 9b bd 01 b1 1d 3c cf cd 20 3d 75 1f d5 3e
       -0.07605661 0.009624721 0.039258774 0.41625562
0003e0 1a fc 8c 3d 98 f4 41 3f c3 79 36 3f 96 a1 94 bd
       0.06884022 0.75763845 0.71279544 -0.072573826
0003f0 0e a2 b5 3d 29 e2 01 3f 01 cb 31 bd 83 66 49 3d
       0.088688 0.5073572 -0.04340649 0.04917003

W0__112 f4 [1, 48, 22]
000000 7c d6 5c be c2 27 33 3e c2 29 da bd f1 71 0b 3d
       -0.21566194 0.17495635 -0.10652496 0.03404421
000010 aa 2c de bd 01 18 b8 be 6b 4d d8 bd b8 6e 45 be
       -0.10848363 -0.35955814 -0.10561641 -0.19280517
000020 87 86 6c bd e3 06 19 3e 2c 31 b8 3e f6 a8 bf 3d
       -0.057745483 0.14944033 0.35975015 0.093583986
000030 b5 1c f2 3d f6 96 12 3f 29 2a 2e 3e ea 1d 68 be
       0.11821882 0.572616 0.1700827 -0.22667661
000040 61 03 8a be d1 d2 dc be 02 0e 0e bc 89 b1 31 3f
       -0.26955703 -0.4312959 -0.008670332 0.6941152
000050 8c d7 1a be 0c eb bd 3e 07 6f 63 3e 34 85 1b bd
       -0.15121287 0.3709339 0.22210322 -0.03796883
000060 7b 79 31 be 11 44 8d 3e f7 3a ce ba f8 bf aa 3e
       -0.17331497 0.27590993 -0.0015734126 0.33349586
000070 e3 75 3c 3d 52 06 2f bf b2 26 82 3e aa 40 ee be
       0.046010863 -0.6836902 0.25420147 -0.4653371
000080 9c 58 a2 3e e8 40 e9 be 01 a2 30 3c 0c 03 8c bd
       0.3170823 -0.45557332 0.010780812 -0.06836519
000090 61 fb 89 3e ba 77 37 3e 72 7c 82 bf 20 b5 33 3e
       0.269496 0.17916766 -1.0194228 0.17549562
0000a0 9e 41 bf be 5d ba fe bd c9 c5 da 3e 9f 88 a0 3d
       -0.3735475 -0.1243789 0.42729023 0.078385584
0000b0 bd c5 3c 3e d0 c9 8f 3d ac 9e a1 bd ef 18 44 3e
       0.18434806 0.070209146 -0.078915924 0.19150136
0000c0 52 da 5d 3e 0d 91 26 3e 17 83 43 3e 82 5a 33 bf
       0.21665314 0.1626627 0.19092976 -0.7005998
0000d0 9b ca d2 be ac bd 3a 3e 25 aa be be da 68 86 3c
       -0.411702 0.18236417 -0.37239185 0.016407419
0000e0 a2 68 ad 3e d2 44 02 3f c0 02 ca bd 8c bd c6 be
       0.3386889 0.5088626 -0.09863806 -0.38816488
0000f0 d9 68 ca 3d 96 e7 c8 bb 10 e8 7e 3d 55 42 19 be
       0.09883279 -0.006131123 0.06223303 -0.1496671
000100 98 d0 81 be 46 29 67 be 4d 83 0a 3f bf b9 b0 3e
       -0.25354457 -0.22574338 0.541066 0.34516713
000110 95 5b aa 3e 40 b7 6f 3e c1 e4 c3 bd 0e 01 7b 3f
       0.33272997 0.23409748 -0.09565116 0.98048484
000120 c0 de c3 3d a6 38 6f be 95 81 99 3f 53 86 92 bf
       0.095639706 -0.23361453 1.199267 -1.1447242
000130 29 eb 15 bf 48 92 0d bf 82 e4 d3 3d 86 81 1f 3f
       -0.5856195 -0.5530133 0.10346319 0.6230701
000140 97 ab 80 bc 76 a3 24 3f b2 1d 53 bd 87 ab 58 3e
       -0.01570682 0.6431192 -0.05154199 0.21159182
000150 2c f5 fb 3e 5c b1 95 bf 97 66 8c 3e 3f aa 8e be
       0.4921049 -1.1694751 0.2742202 -0.27864262
000160 ab dd 18 3e e0 30 d0 3b 55 df 36 3f 13 ab ed 3e
       0.1492831 0.0063534826 0.7143453 0.46419582
000170 76 1f f6 3e 25 9d 65 3f 58 ba 9d be b8 d7 22 3e
       0.48070878 0.8969291 -0.30806231 0.15902603
000180 69 87 35 be b2 e2 a2 bf 9c 73 86 bf ab d9 44 bf
       -0.17727436 -1.2725432 -1.0504031 -0.76894635
000190 a2 c5 a0 3c c2 1d a8 3e f0 7e 03 3f ab 16 49 bf
       0.019625489 0.32835203 0.51365566 -0.78550214
0001a0 27 f1 25 bf 73 0e 36 be f4 6d 12 3c 13 65 24 3d
       -0.64821094 -0.1777895 0.008937348 0.040135454
0001b0 18 a7 36 3e 42 77 03 3e 49 c9 90 bc c6 31 51 3e
       0.17837179 0.12838462 -0.017674105 0.20429143
0001c0 36 25 00 bf 6f e4 fe 3d 6c 29 f7 bd da ea 8a 3e
       -0.5005678 0.12445914 -0.120684475 0.27132303
0001d0 e3 fc 12 3e eb 7e b3 be c1 1b 04 bf 34 ed d7 3e
       0.14354281 -0.35057768 -0.5160485 0.4217316
0001e0 b0 98 5d be bf b0 39 3f 55 71 a2 be 03 0a 31 be
       -0.21640277 0.7253532 -0.3172709 -0.17288975
0001f0 d6 29 39 3e 4b 0d 8b bd 87 6d 76 be 51 41 4e be
       0.18082365 -0.06789645 -0.24065219 -0.20142104
000200 8e 0a 62 be 76 e0 d2 bd ac 15 5c bd 2c c7 be bd
       -0.22074339 -0.10296719 -0.053731605 -0.09315333
000210 58 81 1a be 6d 5b 22 be 4e a0 cf 3b 0b cd 5d be
       -0.15088403 -0.15855189 0.0063362485 -0.21660249
000220 f2 19 e1 3e f9 06 df 3e a0 64 32 be bf f0 0d 3e
       0.43965107 0.43560007 -0.17421198 0.13861369
000230 2e 5d 9f 3e d3 ea 67 3d 2a 2c af bd 29 54 dc 3e
       0.31125778 0.05662043 -0.085533455 0.4303296
000240 26 46 3c 3e 3d ad ae 3e 79 ca f7 3b 90 13 d5 bb
       0.18386135 0.34116545 0.0075619784 -0.006502576
000250 52 67 08 bf f2 20 a4 3e 06 f9 2f 3f 76 ba c7 bd
       -0.53282654 0.32056385 0.68739355 -0.097523615
000260 34 dc 41 bd c6 ad 39 3e e4 37 6c 3d 7d 2f 8d 3e
       -0.047329143 0.18132696 0.05767049 0.27575293
000270 3e ef 21 3e b1 6d c1 bd 24 fd c2 3e 6c e2 41 3f
       0.1581392 -0.0944475 0.38083756 0.7573612
000280 ec 41 23 3e f7 2a bf be 84 8f 6c 3f e6 98 a6 bf
       0.15943116 -0.37337467 0.9240649 -1.3015411
000290 22 33 5f be ec d2 d7 bd 68 25 c7 be 6d d6 69 bf
       -0.2179685 -0.10538277 -0.38895726 -0.9134281
0002a0 63 92 cf 3e 9c 17 34 3f a3 ee 9a 3d 2d ba 56 bf
       0.40541372 0.70348525 0.075650476 -0.8387783
0002b0 86 7b 16 3f 8c d5 a3 bf 20 10 d9 3e 91 57 47 bf
       0.5878223 -1.2799544 0.42395115 -0.7786799
0002c0 ca 44 3d 3e b0 1f 7d bd ea bf bb 3e ca f1 de 3d
       0.18483272 -0.061797798 0.36669856 0.10885961
0002d0 ec 04 11 3e c0 86 98 bc 34 c6 81 be f8 a6 ee 3d
       0.14162034 -0.018618941 -0.2534653 0.116529405
0002e0 78 20 1c be c1 ae 7a 3e 03 e5 fc be 26 a6 ca 3e
       -0.15246761 0.24480726 -0.49393472 0.39579886
0002f0 bd 59 5f be 8d a9 21 3e 89 f1 8c 3e 40 7f 91 be
       -0.21811576 0.15787335 0.27528027 -0.28417397
000300 e2 90 16 be 09 e4 91 3e 64 94 32 3d d1 b6 c2 3b
       -0.14703706 0.2849429 0.043598548 0.0059422036
000310 c3 63 58 3e ea 59 32 be a9 75 8e be c0 99 95 3e
       0.21131806 -0.17417112 -0.27824143 0.29218864
000320 0a 9d 3c 3e 9c 90 87 be 8a 4d e5 be d8 a2 83 3e
       0.1841928 -0.26477516 -0.4478572 0.25710177
000330 4c 20 81 be f6 ad 85 3e 88 4d 9c be 9b 38 6f bd
       -0.25219953 0.26109284 -0.30527902 -0.058403593
000340 3e b0 3b bd a0 72 0f bd b7 a2 78 3e 01 e7 be bd
       -0.045822375 -0.035021424 0.24280821 -0.09321404
000350 14 84 3f 3e 68 13 fa bd 9b 69 31 3e b7 46 c4 3d
       0.18702728 -0.12210733 0.17325442 0.095838
000360 50 63 ba 3c 33 85 01 3e ef 0d b5 3d 06 cf 9c 3e
       0.022752434 0.12648468 0.08840548 0.30626696
000370 03 bd d4 bc 5f 3d 41 3e 64 a3 48 3e 90 d2 9c 3e
       -0.025969034 0.18871067 0.19593579 0.30629396
000380 ba 7e 85 3e cb e7 65 3e fa ed 93 3d 5b 62 f2 be
       0.26073247 0.22451703 0.07223125 -0.47340664
000390 d1 a2 10 3f 32 95 74 3e 6f 8b 1e bf cf 88 b8 3e
       0.5649844 0.23885038 -0.6193151 0.36041877
0003a0 cc 71 56 3e 0c 30 26 3c ad f9 57 3d 43 16 70 3d
       0.20941848 0.010143291 0.052728344 0.05861498
0003b0 2a 6c 71 3e 2a ad ba be ee 37 bb bd a7 1b 67 be
       0.23576418 -0.3646024 -0.09141527 -0.22569142
0003c0 b6 fd 11 bf c8 8d 47 be 6d 81 09 3e 4b 21 8b 3e
       -0.5702776 -0.19487679 0.13428278 0.27173838
0003d0 62 e1 12 be 43 64 94 3e 1d bd 3e bf 98 55 ce be
       -0.14343789 0.28982744 -0.74507314 -0.40299678
0003e0 a0 13 5a 3d e2 0c b3 3e 33 43 57 bd e9 d0 5d 3f
       0.053241372 0.34970766 -0.05255432 0.86646897
0003f0 4b ff bb 3e ee 0d fe bd 72 75 1d be 17 ef df be
       0.3671821 -0.124050006 -0.15376833 -0.437371

StatefulPartitionedCall/model/time_distributed_2/dense_2/MatMul/ReadVariableOp:0 f4 [16, 1]
000000 6a 11 d5 be 00 cb 4d bf bb 0c 0b 3f 33 41 c4 3e
       -0.41614848 -0.8038788 0.543163 0.38330993
000010 36 39 05 bf fa 9c 5a bf 7a c6 36 3f 2d 1d a3 3e
       -0.5204042 -0.8539578 0.713966 0.31858197
000020 76 78 27 bf 68 b6 6b 3f f7 22 04 3f 12 fc 86 be
       -0.65418184 0.92075205 0.5161585 -0.2636419
000030 48 32 ef be cd d6 19 be c5 29 64 be 9c 4a 84 bf
       -0.4671805 -0.15023346 -0.22281559 -1.0335269

StatefulPartitionedCall/model/time_distributed_1/dense_1/MatMul/ReadVariableOp:0 f4 [16, 16]
000000 bc 89 3f be 51 07 0d bf 8c b5 bb bd cd d7 e6 3d
       -0.18704885 -0.5508929 -0.09165487 0.112716295
000010 33 c6 23 3d b2 a7 18 be 97 84 ab be 48 09 12 bd
       0.03998394 -0.1490772 -0.33499596 -0.035653383
000020 89 3e b6 3e d5 6f 55 3e bc 3a d7 be f4 8b 5c be
       0.35594586 0.20843442 -0.42036998 -0.21537763
000030 84 1a ff 3d 9c ed ad 3e a2 60 70 3d aa 2d 28 be
       0.12456229 0.33970344 0.058685906 -0.1642367
000040 33 f6 f2 bd d5 11 83 3d db e0 98 be f8 22 58 be
       -0.11863365 0.063998856 -0.2985905 -0.2110709
000050 26 63 e2 3d 8c e1 56 3e 07 a9 e1 3e 48 45 6a be
       0.11054067 0.20984477 0.4407427 -0.22877991
000060 ab d3 64 be 64 88 1e bd 28 af b2 3e aa 83 85 be
       -0.2234637 -0.03870429 0.3489926 -0.26077014
000070 45 2b 81 3e b3 ea 15 be 27 c7 64 be 0c 81 0b 3c
       0.25228325 -0.14640312 -0.22341596 0.008514654
000080 6c db 3e 3f 93 5e 28 bf 44 95 32 3e 8b 6e 4b 3e
       0.7455356 -0.6576931 0.17439753 0.19866388
000090 7d 88 04 bd 9d 10 d8 be ea d9 99 bf fb bc cf be
       -0.032356728 -0.42200175 -1.2019627 -0.40573868
0000a0 bd 30 55 bf 80 5b d2 3c 64 58 44 bf 20 82 0a be
       -0.83277494 0.025678396 -0.76697373 -0.13526201
0000b0 c3 58 e1 3d fc fe 84 be 75 16 22 3c 3a e0 2a bf
       0.11003258 -0.25975788 0.0098930495 -0.6674839
0000c0 5a 9d ee be d3 1c 09 be dc 7b 06 3f c2 59 e1 bc
       -0.46604425 -0.13389902 0.52532744 -0.02750862
0000d0 df 60 a7 3e 28 21 29 3f 09 54 08 3f 2a 07 8f be
       0.32691094 0.6606622 0.5325323 -0.27935153
0000e0 88 cd f8 be 1d b9 8c be f8 cc 80 3e 7b 3c f1 bd
       -0.48594308 -0.2748498 0.2515638 -0.11779114
0000f0 17 01 4d bf 61 8a b3 be 8d f1 c5 3d 0f 7a ae 3e
       -0.8007979 -0.35066512 0.09665213 0.34077498
000100 ea 02 84 be 38 e3 0b 3e 31 a9 5b 3e b5 4d e4 bd
       -0.25783473 0.13660896 0.2145126 -0.11147634
000110 00 6f 70 be aa aa cd 3b 8b 01 2a bf 7e 37 f5 3e
       -0.23479843 0.0062764483 -0.66408604 0.478939
000120 98 bb 0d 3f 1c 37 7c 3e 35 83 27 be 1e e6 b1 be
       0.5536437 0.24630398 -0.16358645 -0.34745878
000130 b8 24 84 3e e3 96 8e 3e 6b 8e 88 3e 4a d3 00 bf
       0.25809264 0.27849492 0.26671156 -0.503224
000140 dd 1b 9f be fd 0a d9 3d 21 fb c4 bd cd ac 0b 3e
       -0.31075945 0.10597799 -0.096182115 0.13640137
000150 b0 39 84 bf ca 17 e9 be 2b 83 11 be ee 85 1e 3e
       -1.0330105 -0.45525962 -0.14210193 0.15480778
000160 c9 42 a8 3f d4 da f2 3e 7a d1 f4 3e 98 43 03 bd
       1.3145381 0.47432578 0.47816068 -0.032046884
000170 6c 4f 1e be 84 d4 17 3f 6b 90 c8 3e 7f 79 8f bf
       -0.15459985 0.5930865 0.39172682 -1.1208953
000180 df 9c 66 be 60 a3 af be ca 8c b4 3d e1 ea 04 bf
       -0.22520779 -0.34304333 0.08815916 -0.51920897
000190 e5 9e c0 bd 63 3d f1 3c 46 73 c2 bd 86 18 bf 3d
       -0.09405307 0.029448217 -0.09494643 0.09330849
0001a0 df 44 56 be 4b 25 06 3e c9 dc 00 bf f7 d3 8b be
       -0.2092471 0.13100164 -0.5033689 -0.27310154
0001b0 a9 2c b2 bd aa f9 84 3e 6a be b2 3e 8f d6 40 bc
       -0.086999245 0.2597173 0.349109 -0.011769905
0001c0 29 fb e7 3d 29 34 4c be e4 de a6 bd ee 57 98 be
       0.11327202 -0.19941773 -0.08147982 -0.29754585
0001d0 cc 77 0e bd 0f da 84 be 89 e1 86 be 6f 25 89 be
       -0.034782216 -0.25947616 -0.26343945 -0.26786372
0001e0 d4 3a 0c be 54 1d 4a be 86 e8 24 bf d7 a4 3b 3e
       -0.13694316 -0.1973775 -0.644173 0.183246
0001f0 1f 11 2a bf b8 99 47 3e 14 7a ec 3e 84 31 fc bd
       -0.66432375 0.19492233 0.46186888 -0.12314132
000200 75 af bd 3d 17 5d 14 be 61 4b 1e 3f 6a 52 20 3d
       0.092619814 -0.14488636 0.6183377 0.039141096
000210 87 13 ef 3e 00 e1 a4 3e ce 2e 3c bd bc a3 a7 be
       0.46694586 0.3220291 -0.045943074 -0.32742107
000220 dc af 45 be 3a e0 34 be e9 c9 c8 be 17 87 2e be
       -0.19305366 -0.1766366 -0.39216545 -0.1704372
000230 00 e0 07 3e 19 c5 ae 3d 90 2f a4 be 13 34 dc 3c
       0.13269043 0.08533687 -0.32067537 0.0268803
000240 01 38 91 bd 25 d5 ff bd 74 32 54 3e 8a 62 79 3e
       -0.0709076 -0.12491826 0.20722371 0.24353996
000250 1b 85 0b 3e fd 0e 0e be 9d 04 36 3e 0b 21 9b 3e
       0.13624994 -0.13872905 0.17775197 0.30298647
000260 d9 25 89 3e 0e 68 38 be 3d 3a e8 3e 14 cc 1c 3e
       0.26786688 -0.18008444 0.45356932 0.15312225
000270 4e 79 5b be 71 ca ae 3d 46 9b 6f be 5e 87 eb 3d
       -0.21432993 0.085347064 -0.23399076 0.115004286
000280 b4 c3 4e 3e 71 de 9f 3e 4a cb 03 3f 09 68 66 bf
       0.20191842 0.31224397 0.5148207 -0.90002495
000290 9a 1e 60 be 5f e1 29 3f d6 48 cf be 27 c7 eb 3e
       -0.21886674 0.66359514 -0.40485257 0.4605038
0002a0 56 12 d4 bd 78 5f ad be e4 35 7d 3e 1e d8 22 3d
       -0.1035506 -0.338619 0.24727589 0.039756887
0002b0 b7 b6 e4 be ca e8 de 3e 87 f7 a9 3e 64 68 e7 be
       -0.4467065 0.4353698 0.3319666 -0.4519683
0002c0 6c 21 01 3f 86 51 0f 3f ce 2e b0 3e 16 fa 15 bf
       0.5044162 0.5598377 0.3441071 -0.58584726
0002d0 7a ce 01 3e 92 c2 83 3f 1b a5 87 3e d6 11 f4 3e
       0.12676421 1.0293753 0.26493153 0.47669858
0002e0 c6 52 5f 3e 26 50 2f be c8 99 4d be da af 07 3d
       0.2180892 -0.17120418 -0.20078194 0.03312669
0002f0 06 18 15 be 49 bb 67 bd b2 a8 34 3e ac 51 40 bf
       -0.14559945 -0.056575093 0.17642477 -0.7512462
000300 74 de e1 3d b7 52 ea be 5d 81 82 3e 9b bf 99 3e
       0.11028758 -0.4576623 0.2548932 0.30028996
000310 07 d7 5f 3e 61 66 ce be a1 3d 73 3e 48 2b ba 3d
       0.2185937 -0.40312484 0.23753978 0.090902865
000320 38 86 85 be da 97 8d be ac 62 ad 3e 7a 0b 2c bc
       -0.26078963 -0.27654916 0.33864343 -0.010500783
000330 f0 aa a1 be c5 8a c5 bd 46 33 c8 3e 13 14 a2 3e
       -0.31575727 -0.09645609 0.3910162 0.3165594
000340 eb a7 cc 3e 27 a1 2c 3e e7 61 fd 3e f7 f4 00 3f
       0.3997186 0.1685835 0.49488756 0.50373787
000350 c2 8f 53 bd 9f ab 03 be cc e4 21 3d fa 40 7c 3e
       -0.05165077 -0.12858437 0.03952484 0.24634162
000360 ec 69 e9 3d fd 20 4c bf cf 28 ae 3d f2 46 13 3f
       0.11397156 -0.79737836 0.08503877 0.5753013
000370 7e d0 0e be 40 49 ee 3d 4b e8 26 be ce e7 10 3e
       -0.13946721 0.11635065 -0.1629955 0.14150926
000380 bb 87 ec 3c e3 11 c4 3e 92 73 02 3e ea 70 96 be
       0.028873315 0.38294896 0.12739399 -0.29383022
000390 41 1a 83 be 23 34 13 3e e0 6c e3 3d 82 ef e9 3d
       -0.25605968 0.14375357 0.11104751 0.114226356
0003a0 c7 0b 2e be e2 e0 20 be 44 b6 9d 3e 00 00 34 bf
       -0.1699668 -0.15710786 0.3080312 -0.703125
0003b0 6f 3e cf be 22 7f 79 be 9a c3 b4 3e d1 07 0b 3e
       -0.4047732 -0.24364904 0.35305482 0.135772
0003c0 6d a6 0f 3d 2c 19 78 3c a0 5c 60 3e 10 82 16 bf
       0.035070825 0.01514272 0.21910334 -0.5879221
0003d0 dc f6 b3 3b df dd ab be 92 56 d7 3d 99 5c 1d be
       0.0054920744 -0.33567712 0.10514559 -0.15367354
0003e0 6f 2f e4 be 95 10 96 be 2f de f3 be 2f 1f ad 3d
       -0.4456744 -0.29309526 -0.4763045 0.084532134
0003f0 a4 5e cc bd b5 27 ab be b3 b9 82 be 5d 9b 9b 3d
       -0.09978989 -0.33428732 -0.25532302 0.075979926

StatefulPartitionedCall/model/time_distributed_1/dense_1/BiasAdd/ReadVariableOp:0 f4 [16]
000000 c8 8c 48 bd f0 6f 2e be 08 cb e5 3d 1f 74 95 bd
       -0.048962384 -0.17034888 0.11220366 -0.07297539
000010 58 87 fc bd ac 26 03 be cb 23 d0 3d 5e c0 b3 3d
       -0.12330502 -0.12807721 0.10163077 0.087769255
000020 93 6e a4 bd 7c 6d 0d bd d1 16 df 3c 68 8b c6 3c
       -0.08028903 -0.03452824 0.02723256 0.024236396
000030 b0 66 ce bd e7 d2 3e bc de dc 24 bd cd 1c 7c 3d
       -0.1007818 -0.011646963 -0.040249698 0.061550904

StatefulPartitionedCall/model/time_distributed/dense/MatMul/ReadVariableOp:0 f4 [69, 16]
000000 a6 1b 6b be fe 2c 17 3d 98 69 a4 3d 22 19 dd 3e
       -0.22959766 0.036908142 0.08027953 0.43183237
000010 12 c4 6a 3e b5 37 12 3e c1 db e1 bd 96 7e 05 bd
       0.22926357 0.14279063 -0.11028243 -0.032591425
000020 97 4e 17 bd 7d 61 93 3e e2 1a b1 3d 59 a8 3a 3d
       -0.036940183 0.28785315 0.086477056 0.045570705
000030 48 0e 56 bd 31 a9 10 3e 55 42 7d bc 25 55 8c 3d
       -0.052259713 0.14127041 -0.015457709 0.068521775
000040 6f c5 5a bd 2e 0d 81 3e 94 b2 00 3e 2f 72 43 3d
       -0.053410944 0.25205368 0.12568122 0.047716316
000050 7f c3 0c be b8 f6 fe 3d 5c f5 d6 be 47 bc 8e bd
       -0.13746451 0.124494016 -0.4198407 -0.06969505
000060 c5 97 84 3e 83 e3 3b 3e f5 7b 9c be dd cd ea bc
       0.2589704 0.18348508 -0.30563322 -0.028662616
000070 b5 07 9a 3e 4c 60 c5 3d 7d bc 9e 3d a0 fe 1c be
       0.30084005 0.09637508 0.07750795 -0.15331507
000080 d2 35 cb bd a4 e2 5c 3d dc 49 eb 3d 1c d3 2b 3e
       -0.09922375 0.05392708 0.11488697 0.1677975
000090 f1 21 03 3e b6 aa 67 be 62 6b 92 3e c6 16 84 3c
       0.12805916 -0.22623715 0.28597552 0.01612414
0000a0 85 78 68 be ee a8 7e 3e 0c 05 fb bd 92 b7 11 be
       -0.22702225 0.24869129 -0.12256822 -0.14230183
0000b0 c6 20 0c 3e 6e 18 fd 3d 2b 38 4a 3e b6 b5 c5 3e
       0.13684377 0.12358175 0.19747989 0.38615197
0000c0 88 21 1c 3e ec 6e 82 3e 7d 8d b9 3d c2 b8 d8 3c
       0.15247166 0.25475252 0.0906019 0.026455287
0000d0 a2 53 23 3d 3c da 97 3c 17 c6 9a 3d 26 d7 0e be
       0.03987468 0.01853668 0.07557314 -0.1394926
0000e0 a7 34 89 bd c6 f3 68 3e ce 70 2d bd 3a 8c a1 bd
       -0.06699496 0.22749242 -0.042343907 -0.07888074
0000f0 17 06 6d 3e 26 df b9 3e f3 15 b0 3d 85 7d 50 be
       0.23146854 0.3630306 0.085979365 -0.20360382
000100 ca e1 c6 bd 0b 2c 8e be fc c5 a2 bd b4 dc 60 be
       -0.097110346 -0.27767977 -0.07947919 -0.21959192
000110 49 69 20 3f 12 d6 1e bd 2d f4 0d 3e 82 32 57 be
       0.6266065 -0.038778372 0.13862677 -0.21015361
000120 6b 8d b1 3e 8f 4f 41 3e d4 bd 90 3e 08 f1 05 be
       0.34678206 0.18878005 0.28269827 -0.13080227
000130 d5 d4 65 be 12 a6 e1 be 89 89 c7 bd 99 7d b9 3e
       -0.2244447 -0.44072014 -0.097430296 0.36228636
000140 2b 66 05 bd 25 ec bd bd 93 6d 4c 3d d1 e6 d6 3e
       -0.032568138 -0.092735566 0.049909186 0.41972974
000150 63 4a 7a be a3 1c 84 bc b8 5b 5c be 52 8b 96 3d
       -0.24442439 -0.016126936 -0.21519363 0.07350792
000160 b6 59 14 be b1 98 83 bd c0 7f 0c be aa 84 22 3e
       -0.14487347 -0.06425608 -0.13720608 0.1587092
000170 bd aa 9f 3e de cc 3d 3e 6d 1c 32 bd d7 35 bc 3e
       0.3118495 0.18535182 -0.04348414 0.36759827
000180 ca 97 86 3d 68 d8 aa 3d ff 01 d3 3d f4 34 96 3e
       0.0657192 0.083420575 0.10303115 0.29337275
000190 4b 62 38 3d f9 70 07 3e ea 10 d1 3d d5 a9 73 3e
       0.045015614 0.1322669 0.10208304 0.23795255
0001a0 15 c7 c5 3e 4b 4e ea be 2e a3 9e 3d 55 73 e3 bd
       0.3862845 -0.45762858 0.07745968 -0.11105982
0001b0 0f 3e c4 3e c1 ac 1c bd d2 43 0c be 8a 47 c1 3c
       0.38328597 -0.03825069 -0.13697746 0.023593683
0001c0 ad 0a 9d be 74 bd ee bd b5 af 07 3e 09 ff 21 3e
       -0.30672207 -0.11657229 0.1325062 0.15819944
0001d0 86 6c 23 3b 3b 0a 5e bc d0 dd dc be 59 1c e9 3e
       0.0024936511 -0.013552244 -0.4313798 0.4552944
0001e0 60 fb 2a 3e 42 6b 0f 3f 1d 46 81 3d fc ad 72 3c
       0.16697454 0.5602304 0.06312201 0.014811989
0001f0 cf 40 3f bc 26 e5 53 3e b7 64 92 3d 07 35 a2 3d
       -0.011673166 0.20692882 0.07148116 0.079202704
000200 be 7e 87 be 46 f0 a1 3d 94 78 da bd d7 58 98 bd
       -0.26463884 0.07907157 -0.1066753 -0.0743882
000210 b1 c2 a1 3d 53 73 e7 3d 90 4c 42 bd 4e 14 02 be
       0.078984626 0.11301293 -0.047436297 -0.12703058
000220 1b 76 5a be 0c c5 a0 3c 39 d5 b1 3d e3 0c 8a 3e
       -0.21334116 0.01962521 0.08683247 0.26962957
000230 48 4c 93 bc 7c f4 4e 3e 4c 3b 7e 3d 9f 14 d9 bd
       -0.01798071 0.20210451 0.06206827 -0.10599636
000240 e3 2b 7f 3e e0 fc 5b be 55 db 52 3e 00 62 82 3e
       0.24919085 -0.21483183 0.20591481 0.25465393
000250 4b 0d a1 be 21 30 2e be b3 cf 6d bd 24 0a 2a 3e
       -0.31455454 -0.17010547 -0.058059406 0.16605431
000260 88 35 b1 3e b4 d4 9c 3e 36 1f c2 3d 1b 20 0b be
       0.34611154 0.3063103 0.09478609 -0.13586466
000270 be bf d4 3d fe 23 37 be cf 49 0e 3e 08 b8 72 3e
       0.103881344 -0.17884824 0.13895343 0.23703015
000280 f5 e6 97 bd 76 25 2c 3e e8 5f d9 bd f5 93 ad bc
       -0.074170984 0.16811165 -0.10613996 -0.021188715
000290 77 44 38 be c0 75 fe 3d 30 fa c0 be bf f3 9e bd
       -0.17994867 0.12424803 -0.37690878 -0.07761335
0002a0 22 78 fc 3d d7 d0 9c bd 79 4d 01 3e 09 20 8f 3e
       0.12327601 -0.076570205 0.1262721 0.27954128
0002b0 1b de 78 3e a2 ae 3f 3e 68 6f 2b be 19 5f 8a 3c
       0.24303477 0.18718961 -0.16741717 0.01689105
0002c0 3e 06 c2 3e ee b4 e0 bc 49 46 5f be 6c 20 e8 bd
       0.37895387 -0.027430024 -0.21804155 -0.11334309
0002d0 2b 54 97 3e 00 51 3d bd ad b3 9b 3e 1c 47 55 be
       0.29556403 -0.046219826 0.3041052 -0.20827907
0002e0 29 9d 90 be 78 05 06 be eb 3f c5 3d 58 70 02 be
       -0.28244904 -0.13088024 0.09631332 -0.12738168
0002f0 d6 21 48 be 3c 40 af bd 52 31 5d bd 86 d8 65 be
       -0.19544157 -0.085571736 -0.054002114 -0.22445878
000300 07 07 f8 3d f0 28 34 3d e0 12 a4 3d ef 75 cf 3c
       0.12110715 0.043984354 0.080114126 0.02532479
000310 88 0e 1d be 91 5d f3 bd 83 0e 03 be 4c e2 f4 bd
       -0.15337574 -0.11883081 -0.12798505 -0.11957225
000320 81 e0 b1 bd e9 2e 0a 3e 3a c6 e4 be eb 30 e4 be
       -0.08685399 0.13494457 -0.44682485 -0.4456857
000330 a3 e6 8d 3e 3a 09 6c be d4 1b ed 3d 48 86 1a be
       0.27715024 -0.23050395 0.115775734 -0.15090287
000340 3d a9 4e 3d fe af 9f be 12 2b 48 3b cd 56 27 be
       0.050454367 -0.3118896 0.003054325 -0.16341706
000350 e6 f8 95 bd 3c 0b 15 be 2f 49 9a bd 91 d0 d1 be
       -0.07322864 -0.14555067 -0.0753349 -0.40979436
000360 f7 bc 0e be af 1d ae be ca 68 27 be 27 02 d3 3d
       -0.13939272 -0.34007022 -0.16348568 0.10303145
000370 82 59 b6 3a cb 59 23 be 16 a7 e0 bc b0 10 21 bd
       0.0013912173 -0.15952222 -0.027423423 -0.039322555
000380 f0 29 79 be d4 32 48 3e 21 b6 5a be 58 30 1c be
       -0.24332404 0.1955064 -0.21358539 -0.15252817
000390 7d 94 24 be aa 4d ad 3d ad 76 e8 bd a9 2e 4a be
       -0.16072269 0.08462079 -0.113507606 -0.19744362
0003a0 bb 7c a7 bd b2 f1 2e 3e 2f c9 33 3e 48 d2 1a 3e
       -0.08178087 0.17084387 0.17557214 0.15119278
0003b0 e3 c4 1f be 99 5b b7 3e c1 58 70 3e 3a 13 09 bf
       -0.1560245 0.3581207 0.23471357 -0.5354496
0003c0 d2 84 a9 bd 2d 84 05 bd 4c 87 cb bd 75 a4 e6 bd
       -0.082772866 -0.032596756 -0.09937915 -0.112618364
0003d0 a4 2d e4 bd 88 af 03 3e 2b ff f0 3d b1 7e ac bd
       -0.11141518 0.12859929 0.117674194 -0.08422602
0003e0 3b 87 ed 3d 10 ac 8f be 0f 5b cf bd 25 1e 94 3d
       0.11598059 -0.2806096 -0.1012479 0.07232312
0003f0 a5 0f 06 be 8b f4 92 3e 7c dd dd bd 45 ea e7 be
       -0.13091905 0.28702196 -0.108332604 -0.4529592

StatefulPartitionedCall/model/time_distributed/dense/BiasAdd/ReadVariableOp:0 f4 [16]
000000 02 49 e1 3c e4 e9 81 bd 8c 62 99 3d 08 69 59 3e
       0.027500633 -0.06343439 0.074894994 0.21231472
000010 fa 95 d5 bd d9 a4 86 bd b5 08 21 3d 1e 76 93 3d
       -0.104289964 -0.06574411 0.039314944 0.072002634
000020 f4 3c 4e 3d f1 0f a0 3c a6 93 38 be 27 2e 40 be
       0.0503511 0.019538851 -0.18025073 -0.18767606
000030 63 48 9a 3d f2 c1 d4 bd b2 72 2f 3c e7 54 02 3e
       0.07533338 -0.10388555 0.010708498 0.127277

R0__92 f4 [1, 40, 10]
000000 de 95 87 3e 6f 1a 4b be e1 0a 85 bd b7 76 41 bd
       0.26481527 -0.19834302 -0.064962156 -0.047232356
000010 ef 95 c8 3e fe ce 87 be 71 dd 92 3e 4f a0 64 bd
       0.3917689 -0.2652511 0.2868457 -0.055816945
000020 9a 1f c4 3e 2e 1f a8 be 29 63 e2 3c 17 ec 22 bc
       0.3830536 -0.32836288 0.027635174 -0.0099439835
000030 02 65 2f 3f 62 40 12 bf 99 df 0b be 45 df 79 bc
       0.685135 -0.5712949 -0.13659514 -0.0152509855
000040 dc be 77 bf 04 1c 86 be 53 46 25 bf 52 0b ca 3e
       -0.96775603 -0.2619325 -0.6456043 0.39461762
000050 e8 d5 13 3e f0 c5 19 3e 5e e6 fc 3d 98 44 5a be
       0.14437068 0.15016913 0.123486266 -0.21315229
000060 f5 35 49 be 80 c4 56 3e 27 c0 8a 3e f0 2d 2c be
       -0.19649489 0.20973396 0.27099726 -0.16814399
000070 1a bb 2c 3c d9 d3 7f be e6 c1 dc 3e 43 9e 75 3e
       0.010542655 -0.24983157 0.43116683 0.23986153
000080 67 2a 67 3e 7b 55 bd be 90 5f 94 3d 5a 0c e3 be
       0.22574769 -0.3697928 0.072447896 -0.4434536
000090 58 9a 9c bd 25 1c ea 3e f2 8d 94 3e 37 46 6b 3e
       -0.07646626 0.45724598 0.29014546 0.22976004
0000a0 d6 c9 9b be 11 fa 12 3e 03 53 cf be 7a 7a 51 bd
       -0.30427426 0.14353205 -0.4049302 -0.051142193
0000b0 52 de 81 3e 33 e6 69 3e 10 96 e0 3e b9 7c d0 bc
       0.2536493 0.2284172 0.4386449 -0.025450097
0000c0 22 05 e2 be b6 bc 66 be 95 f1 aa be 1b 83 12 3f
       -0.4414454 -0.22532925 -0.33387437 0.572313
0000d0 27 1e e3 3d 7e eb 75 3f 48 1e aa bf 11 9d 33 be
       0.110897355 0.9606246 -1.3290491 -0.17540385
0000e0 5e 0b 9f 3e 95 0d f7 3c ed 6d 4a 3f 41 7a 02 3e
       0.3106336 0.030157844 0.79073983 0.12741949
0000f0 73 ed 8b 3f 00 18 4b 3f 5e 24 4f be 02 29 64 bf
       1.0931839 0.79333496 -0.20228717 -0.8912507
000100 25 ff 94 3e 54 d5 ff 3e 5a 7f 0a bf 41 93 02 3f
       0.2910091 0.49967444 -0.54100573 0.5100594
000110 8d d4 71 bd e6 61 04 3f 2e c3 50 3e 15 a9 8e 3c
       -0.059040595 0.5171188 0.20386955 0.017414609
000120 ac d6 6f be 69 0e 24 bf bd 0b dc be e3 30 cd 3e
       -0.23421735 -0.6408449 -0.42977706 0.4007636
000130 5e ca c0 3e 3e 01 ff bd 9b 43 8a be 6d dd f9 bc
       0.37654394 -0.12451409 -0.27004704 -0.030501092
000140 d1 fe 92 3e c4 b4 fa 3e 0f 56 4e bd 18 92 b8 bd
       0.28710034 0.48966038 -0.05037504 -0.0901224
000150 84 5c 98 be 3c ad 85 3e d0 54 1d bd 67 e6 95 3e
       -0.29758084 0.2610873 -0.03841096 0.29277346
000160 e5 a6 36 3e 0f 15 8d be 0d 7c 24 be 9d d4 44 3e
       0.17837103 -0.2755513 -0.16062947 0.1922173
000170 27 52 11 3d be a4 a6 bd 91 b3 31 be 6e fb 11 3e
       0.035478737 -0.08136891 -0.17353655 0.14256069
000180 90 18 ff 3b 7c 6a 13 3e 7b 2a 6a 3d 20 f8 9e 3e
       0.0077849105 0.1439609 0.05716942 0.3104868
000190 10 05 9e 3d 09 31 8c be 97 ab 51 bd 1c a2 0c bf
       0.07715809 -0.2738116 -0.05118903 -0.5493486
0001a0 be 1f fe bd fa 6b 7f be 17 7c 14 3d 08 6f 75 be
       -0.12408398 -0.24943534 0.036251154 -0.23968136
0001b0 a5 88 03 3e 0e f8 7c be a7 04 b8 3e f1 c0 ca be
       0.12845095 -0.24704 0.3594105 -0.39600328
0001c0 16 73 d9 3e 60 f0 ef be 48 a1 cc 3e 2d ec 7d 3e
       0.42470616 -0.4686308 0.39966798 0.24797125
0001d0 cf 8e 18 bf 16 8c f3 be e6 b6 14 bb 2c a0 f5 3d
       -0.5959291 -0.47567815 -0.0022692024 0.11993441
0001e0 39 55 98 3d cf 92 0e be b4 d7 33 be 50 38 a6 3d
       0.0743813 -0.1392319 -0.17562753 0.081162095
0001f0 73 25 a7 3e b7 16 9d be e6 56 c4 3e b0 e4 8a 3e
       0.3264576 -0.30681393 0.38347548 0.271276
000200 1b b8 4b be d4 c4 f6 bd f4 70 04 3f 0c 8e c2 3e
       -0.1989445 -0.12049261 0.5173485 0.37998998
000210 f5 cd 23 bd 14 f6 ab be f3 1b c3 be 01 d2 71 be
       -0.039991338 -0.3358618 -0.3810726 -0.23615266
000220 2c 3b c5 3e 5e 3f d1 3c 01 ca f2 3e b6 8a bb bc
       0.38521707 0.025542911 0.47419742 -0.022893291
000230 8b b2 3b 3e 4e 5a b7 bd dc 82 a3 3c ca c1 53 bf
       0.18329827 -0.08952771 0.01995986 -0.82717574
000240 8c ae 62 3d 41 3e c6 3e 37 86 63 3f d0 6f 5b be
       0.055342242 0.3871937 0.8887667 -0.21429372
000250 0b 58 e6 be c4 f4 1e bc b0 12 09 be 0a 17 27 3f
       -0.44989046 -0.009701911 -0.13386035 0.6526953
000260 1d 24 93 3d d0 b5 76 3e c7 60 77 bf 18 01 9b be
       0.071846224 0.24092793 -0.96632046 -0.30274272
000270 0f f6 13 bc 54 f1 2a bf cb c4 1a 3f 2e 7a 3c be
       -0.009030833 -0.6677449 0.6045653 -0.18405983
000280 43 51 59 3f 53 e2 ee 3e 98 de 5b 3e f7 71 cb be
       0.8488962 0.46657047 0.21471632 -0.39735386
000290 8a 28 93 3d cc 05 b7 3d 0a 85 eb bb 17 24 24 bf
       0.071854666 0.089366525 -0.0071874904 -0.6411757
0002a0 b7 5a 33 be 79 ce 85 3e 75 b0 8b 3e 74 3d 4b 3e
       -0.17515074 0.2613409 0.27283064 0.19847661
0002b0 f4 8c 61 be 99 41 f7 bd 3f c1 87 bd 70 9c fc 3d
       -0.22026426 -0.12073059 -0.06628656 0.123345256
0002c0 08 a3 82 3d 0a c4 89 be 09 79 4e bf 0a 23 b3 3e
       0.06378752 -0.26907378 -0.80653435 0.3498767
0002d0 cb 57 0c 3d 21 76 61 3e 33 d7 1c be 4e 56 f0 bd
       0.034263413 0.22017719 -0.15316467 -0.11735211
0002e0 7f ac 92 be d3 d7 e2 bd e7 2c 74 be 7e 81 8b bd
       -0.2864723 -0.110763215 -0.23845254 -0.06811808
0002f0 98 2e a3 3d fc 44 b8 3c 91 7c 11 be f4 ee fb 3d
       0.079678714 0.022493832 -0.14207675 0.12301436
000300 12 cc be 3d fd 5b 73 3d bb 4b ad bd 6d ae ee bd
       0.09316267 0.0594139 -0.0846171 -0.11654363
000310 73 1b 69 be ba 81 b9 3d c1 08 51 be d8 33 37 3e
       -0.22764377 0.090579465 -0.20413496 0.1789087
000320 d8 a4 a8 3d d9 37 ff be 06 b1 5e bb cb c8 a2 be
       0.082345665 -0.49847296 -0.0033980026 -0.31793818
000330 28 57 43 be 9e e6 44 3d 31 bb e3 3e cc c1 39 3e
       -0.19076216 0.048071496 0.44478753 0.18140334
000340 9f 5d f5 bc ff 6e cf 3c 06 4d ec be eb fc 28 bd
       -0.029951869 0.025321482 -0.46152514 -0.041256826
000350 11 a4 62 be 0a f0 8d 3e 92 a1 0e be 5c 32 ae 3e
       -0.22132899 0.27722198 -0.13928822 0.34022796
000360 04 27 80 bd 2f 44 15 be e7 6a 0d bd 72 a5 5c 3e
       -0.06257442 -0.14576791 -0.03452578 0.21547487
000370 60 11 06 3d d6 74 d4 3a 18 50 f4 3d 3d 7c 8d 3d
       0.032731414 0.0016209136 0.11929339 0.06908462
000380 65 30 9a be 37 1e 85 3e 64 ff 89 3d 4d 92 03 3e
       -0.30115047 0.25999615 0.06738165 0.12848778
000390 3e 3a 2f bd 1c 6c 0f 3e a1 58 8d 3e 6f 5e 8c 3e
       -0.042780153 0.14006084 0.2760668 0.27415797
0003a0 01 17 df bd ca 2e 88 be 0a bf 09 bf f5 58 a9 3e
       -0.108930595 -0.26598197 -0.5380713 0.3307568
0003b0 e0 6b e6 3c 3f 53 36 3d 67 39 9e be 77 e1 94 3e
       0.02812761 0.044512983 -0.3090317 0.29078266
0003c0 16 db c2 be 4c 01 b8 3d e5 00 80 be 2d 6f d9 be
       -0.38057774 0.08984622 -0.25000682 -0.42467633
0003d0 6e 68 96 be 8a ce 8e 3f c1 46 05 3f 94 45 fd 3c
       -0.2937655 1.1156781 0.52061087 0.030916966
0003e0 39 5d ab be f1 ba 17 3e c9 03 4a 3e de 44 df 3d
       -0.3346956 0.14817406 0.19728006 0.10901807
0003f0 bb 47 e4 bd 7c 0f f0 be 4e b1 81 3c eb 9d 47 bb
       -0.11146494 -0.46886814 0.015831616 -0.0030459117
