BeatLeaderRatings/AccAi/onnx/model_sleep_4LSTM_acc.onnx (onnx, 58091 bytes, 17 tensors)

W0__91 f4 [1, 40, 49]
-0.2967735 0.24045488 -0.021113181 -0.100914106 0.28984165 0.08834831 -0.028313214 -1.0037177
-0.3834459 0.7070406 0.19107424 0.66091436 -0.23781833 0.4080287 0.27198923 -1.4268653
-0.069259875 -0.40606013 -0.10932363 -0.1863541 -0.49243534 0.21629506 0.08680393 -0.64878136
0.19599096 0.67078364 -0.63980407 0.24038549 -0.23550549 0.7419362 0.89042044 -0.14974152
0.07030989 0.35359347 0.1819116 0.022847438 -0.07921965 0.40092728 -0.3536879 -0.17509784
-0.5399221 0.6045062 0.69653296 -0.22264118 0.067616194 0.014482254 0.49864763 0.09335387
-0.16384728 -0.24244267 -0.18227968 -0.40249172 -1.0258433 0.33241892 0.18133916 -1.0144075
0.20793469 0.87615633 -0.36551037 0.3460182 -0.413828 0.02986879 -0.78152984 -0.19733441
-0.35109207 -0.33655363 0.11048831 -0.65263474 0.1734907 -0.95272714 0.23788863 -0.015202386
0.055955645 -0.107881404 -0.33108926 -0.3831807 0.31456146 0.08820737 0.040624145 0.85874444
0.11173513 0.18649893 0.11621901 0.44232687 0.067287885 -0.48965162 -0.09934012 0.08020667
0.69341296 -0.008562081 0.019104797 0.3806345 -0.23560363 -0.07756399 -0.18962188 1.6196485
0.28281033 -0.050910875 0.07054585 0.4275515 -0.028727975 0.16826665 0.47044235 1.3469621
-0.3520342 -0.3851377 0.27354896 0.5362639 0.10809246 -0.19093549 -0.01389635 0.15085411
-0.010530557 1.1196738 0.68322223 0.16715911 -0.4771558 0.09890166 0.20675108 0.021673173
0.23141558 -0.240659 0.24241799 0.062181175 -0.46313292 0.1031104 0.71263 -0.040611543
0.31365842 -0.041545447 -1.1373581 0.18778905 -0.656841 -0.13815677 -0.06679637 -0.52758926
-0.1531938 -0.28438935 0.42635143 -0.6430122 1.1804051 0.01848343 0.14809063 0.22258155
-0.14995289 0.11766396 0.2791946 0.36055824 1.849119 0.18009417 -0.6392552 0.09335371
0.29352507 -0.17895521 -0.73309565 0.36795056 -0.07784772 0.50673133 -0.21136229 -0.41226944
0.05007321 0.6675077 1.0568428 -0.08487881 0.28859678 -0.19922486 0.9157871 0.8260247
-0.23604488 -0.04189451 -0.92899483 -0.8577933 -1.0597364 0.16326034 0.08642669 -0.18057491
0.0509692 -0.036603954 0.2703992 0.6620402 -0.46436286 -0.080829196 -0.24101065 0.25579482
-0.3526115 -0.12849893 -0.57056206 0.7633284 0.28586265 -0.8484888 -0.017082557 -0.14802052
0.12872384 -0.03389836 0.11940688 -0.11537092 0.3265731 0.54798853 0.34420788 0.9545957
-0.12354646 -0.12618734 0.085311525 0.22005415 0.99413013 0.34894907 0.38004857 0.08004416
0.039579198 0.73657674 -0.3967141 0.23185521 0.6857858 0.5285116 0.046120126 0.59541136
1.0241977 0.0626376 0.22933398 0.574624 0.32379702 0.060133383 -0.32685646 -0.1806505
0.25313336 0.07940575 0.17776987 0.38702783 -0.36284184 0.111911245 -0.10936356 -0.025038613
0.399271 0.48418793 0.3150745 0.5425456 -0.18684092 -0.65515834 0.29920834 0.16099554
0.22682323 0.24612637 0.21771088 0.16301425 0.24410638 -0.21498454 -0.008803799 -0.073584616
-0.05680547 0.28473064 0.21388786 0.18754256 0.44858038 0.45639282 0.36406222 1.2113944
00000000: b2f2 97be ce39 763e 8df5 acbc 0eac cebd
00000010: 2066 943e f5ef b43d 1df1 e7bc d279 80bf
00000020: 0553 c4be 9d00 353f f7a8 433e af31 293f
00000030: a686 73be 23e9 d03e 2c42 8b3e 86a3 b6bf
00000040: 1fd8 8dbd 1de7 cfbe 11e5 dfbd 9cd3 3ebe
00000050: 7c20 fcbe 747c 5d3e 42c6 b13d 8916 26bf
00000060: dbb1 483e 7ab8 2b3f 33ca 23bf 9d27 763e
00000070: 5a28 71be 88ef 3d3f 98f2 633f d755 19be
00000080: a2fe 8f3d 340a b53e 0947 3a3e 8d2a bb3c
00000090: e93d a2bd 5746 cd3e 9516 b5be d94c 33be
000000a0: 5638 0abf ebc0 1a3f fc4f 323f 0dfc 63be
000000b0: 5c7a 8a3d fa46 6d3c be4e ff3e 5030 bf3d
000000c0: 95c7 27be e442 78be 86a7 3abe 6513 cebe
000000d0: d54e 83bf d032 aa3e f9b0 393e 1bd8 81bf
000000e0: d5ec 543e c84b 603f 2d24 bbbe 4c29 b13e
000000f0: 43e1 d3be 65af f43c 5712 48bf 0812 4abe
00000100: 57c2 b3be c250 acbe b247 e23d 1213 27bf
00000110: 8ca7 313e ede5 73bf 1499 733e 6e13 79bc
00000120: bf31 653d edf0 dcbd 8884 a9be 4330 c4be
00000130: 330e a13e 11a6 b43d 8165 263d add6 5b3f
00000140: 63d5 e43d 93f9 3e3e 3b04 ee3d ab78 e23e
00000150: 3bce 893d 9eb3 fabe d572 cbbd 6543 a43d
00000160: 8383 313f f847 0cbc aa81 9c3c 86e2 c23e
00000170: 1442 71be dfd9 9ebd 3d2c 42be a450 cf3f
00000180: 84cc 903e ec87 50bd 587a 903d 08e8 da3e
00000190: ee56 ebbc 184e 2c3e d2dd f03e 4169 ac3f
000001a0: d43d b4be c530 c5be 9c0e 8c3e 9748 093f
000001b0: 945f dd3d 9884 43be 84ad 63bc 8079 1a3e
000001c0: 5b88 2cbc 7951 8f3f a7e7 2e3f c22b 2b3e
000001d0: c44d f4be f48c ca3d 8eb6 533e f08b b13c
000001e0: 35f8 6c3e 506f 76be 6c3c 783e b0b1 7e3d
000001f0: c21f edbe 8c2b d33d eb6e 363f 4a58 26bd
00000200: d697 a03e 8f2b 2abd f394 91bf c64b 403e
00000210: bb26 28bf f878 0dbe 89cc 88bd 1710 07bf
00000220: d6de 1cbe 7b9b 91be bc4a da3e 739c 24bf
00000230: 8417 973f 906a 973c 12a5 173e 6bec 633e
00000240: 408d 19be cdf9 f03d 98f2 8e3e 179b b83e
00000250: eeaf ec3f 9b6a 383e 3ba6 23bf 3b30 bf3d
00000260: eb48 963e 0940 37be 28ac 3bbf 0464 bc3e
00000270: a06e 9fbd 25b9 013f 5b6f 58be fb14 d3be
00000280: 9119 4d3d c9e1 2a3f a046 873f f1d4 adbd
00000290: f5c2 933e 9a01 4cbe 0671 6a3f 5b76 533f
000002a0: c0b5 71be 9499 2bbd 9bd2 6dbf 5798 5bbf
000002b0: 71a5 87bf b82d 273e 7a00 b13d a1e8 38be
000002c0: 14c5 503d 07ee 15bd c471 8a3e 777b 293f
000002d0: f8c0 edbe c789 a5bd 7fcb 76be 8af7 823e
000002e0: 7f89 b4be 3995 03be 5b10 12bf 7d69 433f
000002f0: 975c 923e 9036 59bf b8f0 8bbc b192 17be
00000300: 2fd0 033e 02d9 0abd 988b f43d 9747 ecbd
00000310: 9734 a73e fa48 0c3f 043c b03e 6260 743f
00000320: ed05 fdbd 4137 01be cfb7 ae3d e055 613e
00000330: 507f 7e3f 74a9 b23e ba95 c23e 31ee a33d
00000340: cc1d 223d 4b90 3c3f 1c1e cbbe 746b 6d3e
00000350: a88f 2f3f 894c 073f 75e8 3c3d e16c 183f
00000360: e918 833f 2448 803d 87d6 6a3e 8f1a 133f
00000370: b9c8 a53e 6c4e 763d bb59 a7be 72fc 38be
00000380: b29a 813e 7b9f a23d 4e09 363e 8328 c63e
00000390: 68c6 b9be b931 e53d 01fa dfbd c71d cdbc
000003a0: 406d cc3e 7be7 f73e 7251 a13e 45e4 0a3f
000003b0: 3a53 3fbe 75b8 27bf d631 993e 04dc 243e
000003c0: 5944 683e 8d08 7c3e 9aef 5e3e 35ed 263e
000003d0: 06f7 793e e824 5cbe cf3d 10bc 88b3 96bd
000003e0: daac 68bd 37c8 913e 6b05 5b3e 280b 403e
000003f0: 54ac e53e 52ac e93e 5d66 ba3e f90e 9b3f

W0__70 f4 [1, 48, 49]
-0.234746 -0.12527186 -0.7623812 -0.040557783 -0.022336997 0.21260618 0.42285275 -0.11170917
0.11097859 0.04007275 0.17117782 0.15750001 -0.22175156 -0.011277124 0.45495883 -0.21809651
0.022665467 0.8194793 -0.07834224 0.08602809 0.20786682 -0.2303225 -0.13171539 0.5535667
0.41842002 0.8272856 -0.55610836 0.4727139 0.14604601 -0.18646999 0.026036004 0.5503508
-0.21975017 -0.37414765 0.3163776 0.020943493 -0.047138743 1.1542958 0.73956716 0.69422567
-0.35998836 0.80038494 -0.091834374 -0.18939117 0.3611537 0.13242093 0.18961337 0.25194353
0.314871 -0.24945092 0.41076776 0.09114112 -0.1557132 0.561685 0.53443635 0.390604
0.55506915 0.41805258 0.18704389 -0.10576167 0.13443553 0.1685436 0.18592905 -0.32875788
-0.13550271 0.0046817036 -0.57735145 0.0482425 0.2064541 -0.003613902 -0.067711145 0.13732
-0.13516071 -0.23542836 0.43274117 -0.4585579 0.5355961 0.01617273 0.5929518 -0.20408809
-0.027701316 0.036040373 -0.08390401 0.08756309 0.20276132 0.28010654 -0.113697454 -0.61957574
-0.17424308 0.24924919 -0.10321975 -0.034462776 -0.09341812 0.048028275 0.17418984 0.051517542
0.0007084503 0.21843371 -0.01952017 0.32199472 -0.28323117 -0.116648585 -0.3439681 0.5434688
0.10250773 0.42983598 -0.3169117 0.4047324 -0.26096097 0.105532944 0.18848245 0.07308007
0.73096645 0.14770292 0.29130223 -0.14926642 0.25376582 0.10114341 -0.08027483 -0.19317085
-0.71798396 -0.83811975 -0.41565722 -0.06844039 0.038381413 -0.0356075 -0.07058789 0.50725794
0.44784927 0.35279578 -0.19187152 -0.8677693 -0.15746056 -0.61696494 0.027461912 0.97554123
-0.079747476 0.85630256 -0.2030244 -0.22382656 -0.4733384 -0.09001349 0.06771054 0.24022877
-0.3053146 -0.06095967 -0.134899 0.23724556 0.047945704 0.4305969 0.009883066 0.27613917
-0.29388615 -0.26583672 -0.1937236 -0.07108114 0.03486537 -0.19509837 0.17582655 -0.12423728
0.05060813 0.008662353 0.20559649 -0.47256705 0.03350439 0.06919755 -0.105152875 0.29005048
0.23235671 0.4738957 0.36120787 0.38817993 -0.26998243 0.0066703307 0.4856853 -0.3550261
0.6390382 -0.26700747 0.18391676 0.026061092 0.66532516 0.13757543 0.28729624 0.061593734
-0.18913999 0.26040375 -0.5319568 -0.2649158 0.5651225 0.012357658 -0.2169463 0.17296563
0.06576234 -0.43610576 -0.17983839 0.011113731 1.0635269 -1.2692965 -0.7370135 0.5036803
-0.58798295 0.062154006 0.6835581 0.32534146 -0.2813585 0.78718823 0.5070477 0.44755873
-0.3983581 -0.5161493 1.2987996 0.57310146 0.13789204 0.9600986 0.27360702 -0.2019336
-0.10948642 0.20266755 0.9685274 0.81728977 0.5419649 0.03678979 0.8984863 0.6785595
1.0469882 -1.1189003 0.9515175 1.062335 -0.543226 -0.4692214 -0.19540608 -0.18083847
-0.17636624 -0.26028904 0.14184117 -0.04406171 1.5561004 0.6032652 -0.3503378 -0.10571885
0.027596315 0.05401501 -0.045798503 0.08700964 0.31922927 -0.6124337 0.48047063 -1.1166555
0.8817034 0.044912893 0.98562765 -0.3772933 -0.9187056 0.65871745 0.40610063 0.5880177
00000000: 4161 70be 4447 00be 6a2b 43bf eb1f 26bd
00000010: 14fc b6bc 6fb5 593e 2880 d83e c7c7 e4bd
00000020: be48 e33d 5323 243d 3d49 2f3e af47 213e
00000030: d712 63be b0c3 38bc 5df0 e83e b154 5fbe
00000040: eeac b93c 65c9 513f e571 a0bd 7f2f b03d
00000050: 0adb 543e a9d9 6bbe 66e0 06be 8cb6 0d3f
00000060: 263b d63e fdc8 533f 1e5d 0ebf 8e07 f23e
00000070: 168d 153e fdf1 3ebe 7549 d53c cae3 0c3f
00000080: 3006 61be 4890 bfbe 3ffc a13e b091 ab3c
00000090: 8e14 41bd f7bf 933f 4654 3d3f c6b8 313f
000000a0: 6550 b8be 07e6 4c3f a913 bcbd c2ef 41be
000000b0: 23e9 b83e 5a99 073e 022a 423e befe 803e
000000c0: c636 a13e 1070 7fbe 2750 d23e 32a8 ba3d
000000d0: 4873 1fbe 97ca 0f3f d2d0 083f 3ffd c73e
000000e0: 0319 0e3f fd0a d63e 6f88 3f3e 9399 d8bd
000000f0: 78a9 093e b296 2c3e 2f64 3e3e f452 a8be
00000100: 39c1 0abe fa68 993b 4ecd 13bf ed99 453d
00000110: b468 533e 37d7 6cbb 24ac 8abd 9d9d 0c3e
00000120: 9267 0abe 2214 71be 4090 dd3e 1ac8 eabe
00000130: d31c 093f ac7c 843c b0cb 173f 78fc 50be
00000140: dfed e2bc 129f 133d ded5 abbd 4754 b33d
00000150: aaa0 4f3e 206a 8f3e 36da e8bd 849c 1ebf
00000160: c76c 32be 2e3b 7f3e e064 d3bd d728 0dbd
00000170: 0052 bfbd 4cb9 443d d25e 323e 0f04 533d
00000180: 4bb7 393a 16ad 5f3e c3e8 9fbc 7edc a43e
00000190: ad03 91be 74e5 eebd 961c b0be c520 0b3f
000001a0: 93ef d13d 7613 dc3e 4042 a2be 1639 cf3e
000001b0: ad9c 85be a821 d83d 8b01 413e 01ab 953d
000001c0: 9e20 3b3f 6f3f 173e 9125 953e 4cd9 18be
000001d0: 98ed 813e 4724 cf3d 2167 a4bd 94ce 45be
000001e0: cccd 37bf 048f 56bf 06d1 d4be 7a2a 8cbd
000001f0: d435 1d3d 2bd9 11bd 6290 90bd a8db 013f
00000200: 804c e53e a6a1 b43e f879 44be 2126 5ebf
00000210: 573d 21be 6af1 1dbf cef7 e03c 12bd 793f
00000220: a552 a3bd a536 5b3f a1e5 4fbe ca32 65be
00000230: 6959 f2be fe58 b8bd d3ab 8a3d 88fe 753e
00000240: 3252 9cbe d9b0 79bd f722 0abe 80f0 723e
00000250: b762 443d 3277 dc3e 95ec 213c 1d62 8d3e
00000260: 3f78 96be c01b 88be 7b5f 46be fd92 91bd
00000270: fdce 0e3d dec7 47be e00b 343e 1d70 febd
00000280: 784a 4f3d 8bec 0d3c e387 523e 4ff4 f1be
00000290: e63b 093d 72b7 8d3d 645a d7bd 7f81 943e
000002a0: ebee 6d3e 75a2 f23e 3df0 b83e 85bf c63e
000002b0: 233b 8abe ca92 da3b beab f83e fbc5 b5be
000002c0: 0298 233f 34b5 88be ad54 3c3e 127e d53c
000002d0: c052 2a3f 93e0 0c3e 7e18 933e b649 7c3d
000002e0: eaad 41be a453 853e 522e 08bf 0ba3 87be
000002f0: deab 103f c677 4a3c 2c27 5ebe e71d 313e
00000300: 68ae 863d 4149 dfbe 8e27 38be 5e16 363c
00000310: a621 883f 4f78 a2bf ebac 3cbf 31f1 003f
00000320: 0d86 16bf 3395 7e3d aafd 2e3f 2893 a63e
00000330: 390e 90be 2b85 493f e1cd 013f 6b26 e53e
00000340: 98f5 cbbe 5c22 04bf 113f a63f c7b6 123f
00000350: 9233 0d3e 06c9 753f 3816 8c3e aec7 4ebe
00000360: 6b3a e0bd 1588 4f3e 69f1 773f e739 513f
00000370: 36be 0a3f e4b0 163d 3303 663f 13b6 2d3f
00000380: b603 863f 2038 8fbf a796 733f 98fa 873f
00000390: dc10 0bbf ca3d f0be 8818 48be b82d 39be
000003a0: 5a99 34be 9b44 85be d03e 113e 0d7a 34bd
000003b0: 4c2e c73f 976f 1a3f 7a5f b3be 2083 d8bd
000003c0: ab11 e23c d83e 5d3d 3697 3bbd 1c32 b23d
000003d0: 0572 a33e 74c8 1cbf 3f00 f63e 91ee 8ebf
000003e0: 50b7 613f 95f6 373d 1852 7c3f 962c c1be
000003f0: 4a30 6bbf b5a1 283f 6cec cf3e 5488 163f

W0__134 f4 [1, 32, 22]
0.085429996 0.3931561 -0.10179442 0.14074355 0.13256326 0.020008897 0.32225418 -0.026309902
0.012960577 0.36683768 -0.15982069 0.3540935 -0.23382413 0.28326145 0.25772133 0.12825945
-0.0075003444 -0.17839044 0.0192736 0.1693477 0.3854785 0.38263205 0.22111082 -0.16360599
-0.49412942 -0.03684793 0.21926667 -0.034484614 -0.39623007 0.41152707 0.28943038 0.22048983
0.10509139 -0.21917556 0.040715672 0.10684008 0.16239455 0.1742398 -0.042746626 0.23116006
0.051041808 -0.16074291 0.14256288 -0.7936011 -0.05888614 0.36972675 -0.2521705 -0.01622154
0.42096266 -0.45705962 0.6917924 -0.24863924 -0.026098771 0.42544153 -0.6990945 0.175988
-0.2908201 -0.75041807 0.080699 0.40595782 0.29786202 -0.32007578 0.0648979 -0.008504257
0.28825942 -0.42946815 0.13373764 -0.117552705 -0.21098067 0.07542528 -0.019154018 -0.33440515
-0.4280248 -0.059199028 -0.16773088 0.36449894 -0.16291736 0.83425355 0.31102088 -0.49682775
-0.14408708 -0.026365092 -0.036195457 -0.359732 0.64689773 0.26591524 -0.5177275 -0.43216
0.03233645 0.025734434 -0.58618176 0.24059914 -0.2683836 0.0950666 -0.2688003 -0.31155598
-0.18906364 -0.039106697 0.17243077 0.06527477 0.51419586 0.036079172 -0.2988376 0.52291983
-0.21798842 0.48344725 0.10137511 0.24326389 -0.051990896 -0.31737968 0.14999962 -0.18772717
0.23619746 -0.28947425 -0.37055245 0.108268075 -0.7061894 -0.44712338 -0.42119297 0.17232777
-0.556001 1.3356026 -0.010835367 -0.3140018 0.1520097 0.009991026 0.33413133 0.058316983
0.18850271 -0.3042066 -0.058788978 -0.64590216 0.11469339 -0.084754355 -0.114648975 -0.21084718
0.2619244 -0.2372902 0.2584988 0.10792488 -0.32954693 0.15913919 0.067446224 -0.061208256
-0.37215254 -0.91146404 0.06570148 -0.16119005 0.12072066 0.09699875 -0.2058032 -0.22893454
0.106265984 0.07573062 0.6986299 -0.25314555 0.2048771 -0.3664795 -0.07101197 -0.42340887
0.0843293 -0.27115804 -0.3688082 0.610702 -0.8789216 0.96310323 0.47878784 0.1343092
-0.08768957 -0.65179807 0.24782804 0.18665744 -0.026161285 -0.22659564 0.22869341 -0.047630634
-0.29104432 0.25415167 -0.31855085 0.15739857 0.020284906 0.086117275 0.12482756 -0.6419649
-0.42636046 -0.14733723 0.2241398 -0.21737796 -0.2297793 0.77640235 -0.082653366 0.15216376
-0.10557208 -0.38419056 -0.38767195 -0.20653744 0.017715609 0.80090636 0.27018794 -0.3164609
-0.060508218 -0.16782306 -0.46089342 0.3166426 -0.0880437 0.4187576 -0.4314112 -0.07405992
-0.26015174 -0.006411951 0.076524146 0.27592054 -0.037656657 -0.42945218 -0.012725758 -0.39582005
0.16776136 0.41102114 -0.028717484 -0.109383576 -0.25782713 -0.5094043 -0.15711354 0.08768454
0.4328637 0.3362083 0.73324615 0.0010889169 0.17420624 -0.14055078 -0.5078681 0.18274347
-0.08772448 -0.5063862 0.11656233 -0.20009188 -0.14517267 -0.25382352 0.5805034 0.1152961
0.75939965 -1.2411364 -0.20490928 -0.16541752 0.019035907 0.1067885 -0.07049265 0.2132687
0.0686674 0.4504362 0.1087843 0.11024751 0.22851428 0.18647231 -0.08907683 0.14800495
00000000: ecf5 ae3d c24b c93e 9879 d0bd 141f 103e
00000010: aabe 073e b3e9 a33c 80fe a43e dd87 d7bc
00000020: 9a58 543c 26d2 bb3e 09a8 23be be4b b53e
00000030: 986f 6fbe a507 913e 0df4 833e 7256 033e
00000040: 73c5 f5bb fcab 36be abe3 9d3c 7c69 2d3e
00000050: 705d c53e 59e8 c33e e06a 623e 5488 27be
00000060: 88fe fcbe dbed 16bd 7187 603e bd3f 0dbd
00000070: abde cabe adb3 d23e 3830 943e 16c8 613e
00000080: 283a d73d 8f6f 60be 7ac5 263d f9ce da3d
00000090: c24a 263e eb6b 323e 1617 2fbd 39b5 6c3e
000000a0: 3711 513d ca99 24be 01fc 113e 7129 4bbf
000000b0: 9832 71bd d34c bd3e 7e1c 81be 09e3 84bc
000000c0: 6b88 d73e b803 eabe 4f19 313f 499b 7ebe
000000d0: 17cd d5bc 79d3 d93e dbf7 32bf 3336 343e
000000e0: 5fe6 94be 661b 40bf 8445 a53d b4d9 cf3e
000000f0: 5f81 983e f9e0 a3be 31e9 843d 7055 0bbc
00000100: bd96 933e 40e3 dbbe 85f2 083e 79bf f0bd
00000110: 510b 58be 9278 9a3d e3e8 9cbc 2737 abbe
00000120: 1126 dbbe ae7a 72bd a5c1 2bbe 9b9f ba3e
00000130: cfd3 26be a491 553f 213e 9f3e 3560 febe
00000140: 908b 13be 9bfb d7bc b041 14bd cb2e b8be
00000150: 179b 253f 0b26 883e ca89 04bf 1344 ddbe
00000160: 3a73 043d 05d1 d23c 0210 16bf 9f5f 763e
00000170: 9369 89be 47b2 c23d 31a0 89be 4484 9fbe
00000180: e699 41be 582e 20bd b191 303e c7ae 853d
00000190: 57a2 033f c1c7 133d 3e01 99be 13de 053f
000001a0: 5b38 5fbe 6686 f73e c19d cf3d 2b1a 793e
000001b0: 68f4 54bd 977f a2be 8099 193e 8d3b 40be
000001c0: bfdd 713e f835 94be 0db9 bdbe a7bb dd3d
000001d0: d4c8 34bf 5bed e4be 9ba6 d7be b176 303e
000001e0: 1556 0ebf 07f5 aa3f d386 31bc d8c4 a0be
000001f0: 6ea8 1b3e 66b1 233c 4313 ab3e cadd 6e3d
00000200: db06 413e f8c0 9bbe b6cc 70bd d859 25bf
00000210: 5ee4 ea3d b193 adbd 15cd eabd 53e8 57be
00000220: f41a 863e 34fc 72be f459 843e b807 dd3d
00000230: 60ba a8be 62f5 223e 3f21 8a3d 82b5 7abd
00000240: c78a bebe b555 69bf 7f8e 863d 010f 25be
00000250: 653c f73d 48a7 c63d 13be 52be d16d 6abe
00000260: fba1 d93d a818 9b3d 69d9 323f 4b9c 81be
00000270: 4dcb 513e 33a3 bbbe b96e 91bd 0cc9 d8be
00000280: d7b4 ac3d 3ad5 8abe 6ed4 bcbe f756 1c3f
00000290: 0201 61bf ef8d 763f ae23 f53e 5a88 093e
000002a0: 9796 b3bd 3ddc 26bf a2c6 7d3e 2123 3f3e
000002b0: 3150 d6bc b008 68be 9b2e 6a3e 5718 43bd
000002c0: c303 95be 2b20 823e 1919 a3be 172d 213e
000002d0: 882c a63c 415e b03d 97a5 ff3d d057 24bf
000002e0: eb4b dabe 92df 16be e784 653e 5498 5ebe
000002f0: 444b 6bbe 4ec2 463f 2b46 a9bd d1d0 1b3e
00000300: 2d36 d8bd a0b4 c4be f07c c6be 8d7e 53be
00000310: 5320 913c 3308 4d3f 1356 8a3e 2a07 a2be
00000320: 77d7 77bd cfd9 2bbe 39fa ebbe fb1e a23e
00000330: 4150 b4bd 6567 d63e eee1 dcbe baac 97bd
00000340: 9c32 85be 581b d2bb b1b8 9c3d 7545 8d3e
00000350: de3d 1abd 28e1 dbbe b37f 50bc eda8 cabe
00000360: a2c9 2b3e 5d71 d23e ee40 ebbc 7f04 e0bd
00000370: eb01 84be 5268 02bf 5fe2 20be f493 b33d
00000380: 50a0 dd3e 7f23 ac3e 05b6 3b3f fdb9 8e3a
00000390: 1f63 323e 8bec 0fbe a503 02bf 1b21 3b3e
000003a0: e4a8 b3bd 87a2 01bf 3bb8 ee3d e3e4 4cbe
000003b0: 25a8 14be 28f5 81be df9b 143f 5d20 ec3d
000003c0: 0468 423f 8fdd 9ebf bdd3 51be 3663 29be
000003d0: 31f1 9b3c eeb3 da3d 735e 90bd 1c63 5a3e
000003e0: 7ea1 8c3d 939f e63e 4eca de3d 72c9 e13d
000003f0: a6ff 693e 99f2 3e3e ea6d b6bd 9c8e 173e

W0__112 f4 [1, 48, 22]
0.24872623 0.4764478 0.17872873 0.2098397 0.26791006 -0.34140232 -0.46921933 -0.14817186
0.27678445 -0.14498368 0.112930745 -0.19163308 -0.19714898 0.41125134 0.0643393 0.19975798
-0.13688925 -0.14694636 -0.1399057 0.14372717 -0.16487326 -0.08811404 0.04303291 -0.1514448
-0.14689784 0.1006294 0.12920956 -0.20362653 -0.32580754 -0.19345103 -0.60903364 -0.04643562
0.050908502 0.11237333 -0.1407973 0.20552188 -0.113365926 0.08410468 -0.48527193 0.20308273
-0.03392547 0.4477637 -0.3370691 -0.64811087 0.3482163 0.13941827 0.19793086 0.09731635
0.0807789 -0.055695586 0.047935005 -0.41688585 -0.21884657 -0.08457392 -0.27850747 -0.01574623
0.1433393 0.08471581 0.0060624606 -0.15362827 0.25394773 0.30259502 -0.31661534 -0.04744089
-0.106495455 0.3076904 0.02464459 0.2788779 -0.28273034 0.17136025 -0.11046695 0.15928833
-0.1106972 0.7054382 -0.22033928 0.5536805 -0.27679464 0.7502605 0.11654682 -0.18782018
0.39390928 -0.07408902 -0.23454729 0.20075263 -0.09718719 0.43986574 -0.0868493 0.1994766
-0.08328248 0.061297633 0.634119 0.31442916 0.27783012 -0.5770547 0.04106368 -0.96153665
-0.016434398 -0.04741141 -0.00626773 0.5065649 -0.5737155 -1.0426648 0.51569283 -0.23950106
-0.590062 -0.036047585 0.633935 0.3091795 0.19339204 -0.569443 0.16798992 0.38033986
-0.5227117 0.30997515 0.5870997 -0.0692873 -0.10756238 -0.28895578 0.13334592 -0.35889998
-0.124217704 0.19266015 0.22020876 0.44088787 0.22047475 0.26423612 -0.33956337 0.025409246
0.16736996 -0.26387003 0.3091492 -0.28884095 -0.0949425 0.050929025 0.39805338 0.29112604
-0.016073467 -0.04594643 -0.66184396 -0.6099514 0.031210529 -0.22937617 -0.22187832 -0.12323197
0.18355654 -0.21985339 0.46121135 -0.305611 -0.18238321 0.51757914 0.22842902 0.09365598
0.2477933 0.5327868 -0.026497293 0.15923372 0.30421796 0.054715987 0.29527786 -0.24990787
-0.06424471 -0.13458528 0.19427052 -0.46332029 -0.16942935 0.3682832 0.22074617 -0.24987476
0.012913254 0.34566778 -0.036229026 0.27962223 0.25959745 -0.34978208 0.31727988 0.1162196
0.055258255 -0.18159935 0.6268816 0.13987066 0.38267583 0.34995127 -0.35868868 0.45319214
-0.46440595 0.51623476 -0.34191516 -0.39140686 -0.061464287 -1.3778297 0.29982862 -0.64369714
0.13602854 0.5044646 0.44200033 0.3541261 -0.21362357 -0.15495236 -0.2590327 0.2309181
0.17363979 -0.3138302 -0.3888815 0.1204408 -0.2336906 0.2589474 -0.23232877 0.07685552
0.05494258 -0.05860233 0.23025635 0.12533502 0.21717331 0.28471282 0.28787997 0.25541675
0.10614086 0.10121549 0.326591 0.45814386 0.052217457 -0.011008259 0.08921208 0.18135476
0.4492555 -0.26335463 0.19284435 0.011367098 0.26839247 0.31411707 -0.19559436 0.24774827
0.07601962 0.38309595 0.14585952 -0.23979391 0.17328401 0.06371892 0.28119448 0.039533
-0.04647886 -0.14891434 0.20748408 0.34063652 -0.16702415 0.26051062 -0.25712144 -0.19486159
-0.24668774 -0.19317959 -0.05071546 0.037282016 0.21888794 -0.773263 -0.13650025 0.885595
00000000: 17b2 7e3e f7f0 f33e aa04 373e 38e0 563e
00000010: 822b 893e 49cc aebe 843d f0be 5dba 17be
00000020: b1b6 8d3e 9a76 14be 3c48 e73d 763b 44be
00000030: 6ce1 49be 898f d23e 53c4 833d 5b8d 4c3e
00000040: b22c 0cbe 1b79 16be 7143 0fbe 372d 133e
00000050: 89d4 28be 2275 b4bd 4743 303d 5814 1bbe
00000060: 636c 16be c916 ce3d 834f 043e 7983 50be
00000070: 3fd0 a6be 0718 46be a1e9 1bbf 4733 3ebd
00000080: 6f85 503d fd23 e63d 2b2d 10be 5474 523e
00000090: 652c e8bd 133f ac3d 9075 f8be ebf4 4f3e
000000a0: 6ff5 0abd 4941 e53e 5294 acbe 98ea 25bf
000000b0: 6849 b23e aac3 0e3e 63ae 4a3e cb4d c73d
000000c0: 686f a53d 0e21 64bd 7f57 443d 1072 d5be
000000d0: 5119 60be 1735 adbd 8898 8ebe 3dfe 80bc
000000e0: 8ac7 123e 7c7f ad3d 9ba7 c63b bb50 1dbe
000000f0: 7005 823e bced 9a3e 681b a2be 6151 42bd
00000100: 4a1a dabd 9989 9d3e 74e3 c93c 16c9 8e3e
00000110: 08c2 90be 1079 2f3e 7f3c e2bd 7b1c 233e
00000120: 37b5 e2bd 9997 343f 9fa0 61be 01be 0d3f
00000130: 07b8 8dbe 1211 403f 19b0 ee3d ef53 40be
00000140: 7aae c93e fcbb 97bd 2a2d 70be 1992 4d3e
00000150: 140a c7bd 1536 e13e 0cde b1bd 9843 4c3e
00000160: 0190 aabd 3a13 7b3d 9f55 223f dcfc a03e
00000170: c03f 8e3e dbb9 13bf 6432 283d 4427 76bf
00000180: 6ea1 86bc 7732 42bd 8861 cdbb 3dae 013f
00000190: 05df 12bf 0a76 85bf 7204 043f c43f 75be
000001a0: 4e0e 17bf a2a6 13bd 9049 223f c74c 9e3e
000001b0: 9008 463e 04c7 11bf 8d05 2c3e e8bb c23e
000001c0: 6fd0 05bf 10b5 9e3e 2a4c 163f 80e6 8dbd
000001d0: aa49 dcbd 03f2 93be d58b 083e bdc1 b7be
000001e0: da65 febd b448 453e 687e 613e 0ebc e13e
000001f0: 22c4 613e f549 873e 40db adbe 0d27 d03c
00000200: 0863 2b3e f919 87be ce48 9e3e f6e2 93be
00000210: 3771 c2bd f49a 503d a7cd cb3e 790e 953e
00000220: 81ac 83bc 5332 3cbd 9b6e 29bf c625 1cbf
00000230: 39ad ff3c 96e1 6abe 1234 63be 0b61 fcbd
00000240: 3ff6 3b3e 3f21 61be e523 ec3e 0c79 9cbe
00000250: aac2 3abe 1180 043f 4ce9 693e b5ce bf3d
00000260: 87bd 7d3e b764 083f da10 d9bc 2a0e 233e
00000270: 75c2 9b3e df1d 603d a92e 973e d9e7 7fbe
00000280: bb92 83bd b9d0 09be daee 463e 5138 edbe
00000290: e37e 2dbe 9e8f bc3e 490b 623e 2bdf 7fbe
000002a0: 1d92 533c 5efb b03e e364 14bd a52a 8f3e
000002b0: f5e9 843e a316 b3be 8272 a23e 8b04 ee3d
000002c0: 7b56 623d 2ef5 39be 507b 203f 413a 0f3e
000002d0: 16ee c33e d02c b33e 0ba6 b7be cd08 e83e
000002e0: 9ec6 edbe f627 043f 810f afbe 7b66 c8be
000002f0: fac1 7bbd b95c b0bf 2383 993e 56c9 24bf
00000300: 114b 0b3e 9824 013f de4d e23e 0450 b53e
00000310: 23c0 5abe d5ab 1ebe ef9f 84be cb75 6c3e
00000320: a1ce 313e 5aae a0be 7a1b c7be aba9 f63d
00000330: 974c 6fbe c194 843e 98e7 6dbe 6d66 9d3d
00000340: 790b 613d ff08 70bd 52c8 6b3e d357 003e
00000350: ae62 5e3e e1c5 913e 0165 933e fcc5 823e
00000360: 6160 d93d 114a cf3d f036 a73e d591 ea3e
00000370: f9e1 553d fc5b 34bc d3b4 b63d 10b5 393e
00000380: d104 e63e 6bd6 86be fd78 453e 113d 3a3c
00000390: bd6a 893e f4d3 a03e e349 48be b9b1 7d3e
000003a0: 2db0 9b3d 2725 c43e 335c 153e 898c 75be
000003b0: 5d71 313e 117f 823d b9f8 8f3e 5bed 213d
000003c0: 9e60 3ebd 007d 18be b576 543e e967 ae3e
000003d0: 6108 2bbe a661 853e 6ca5 83be cc89 47be
000003e0: b69b 7cbe dfd0 45be 04bb 4fbd 07b5 183d
000003f0: 2924 603e 90f4 45bf b9c6 0bbe 5bb6 623f

StatefulPartitionedCall/model/time_distributed_2/dense_2/MatMul/ReadVariableOp:0 f4 [16, 1]
-0.074232355 -0.16601658 0.44317776 0.31432107 -0.3801325 -0.2812486 0.47200888 0.18296683
-0.2603519 0.50162256 0.37693137 -0.50941604 -0.4345978 -0.193267 -0.38194662 -0.46262982
00000000: 2207 98bd 4000 2abe 32e8 e23e b1ee a03e
00000010: baa0 c2be d1ff 8fbe 26ab f13e a85b 3b3e
00000020: d84c 85be 566a 003f 26fd c03e 1769 02bf
00000030: 9a83 debe c9e7 45be 828e c3be d1dd ecbe

StatefulPartitionedCall/model/time_distributed_1/dense_1/MatMul/ReadVariableOp:0 f4 [16, 16]
0.13624372 -0.2224424 0.019956399 0.40913853 0.18875332 -0.22579308 -0.2794819 0.05001117
0.3513772 0.15307549 -0.2841346 -0.07786112 0.2928733 0.19100052 0.009081958 -0.09578697
-0.2590795 -0.6035174 -0.3828069 -0.070237294 0.4049199 0.3425017 0.47108683 -0.19572139
-0.81176144 -0.18401234 0.3274656 -0.1807267 0.2315733 -0.06132965 -0.261311 0.044200666
0.27617764 0.29693282 0.18217151 -0.31908324 -0.29895428 -0.08056008 -0.434805 0.29103878
0.37305045 0.103311665 0.2909317 0.14261325 0.13238923 0.13594347 0.29831955 -0.00143393
-0.51942587 0.2697276 0.3471096 0.18558086 0.37636837 0.016128499 0.5104653 -0.24395473
-0.5839457 -0.22103582 0.2401956 -0.27095884 -0.5022548 -0.2857943 0.14754434 -0.024697952
0.011701385 -0.38946983 0.17583512 0.09212656 -0.24039027 0.17130099 -0.2704872 0.19712292
0.94010204 0.32719162 -0.23687854 -1.0349251 0.25025982 0.35501182 0.14184292 -0.1857814
-0.06693205 -0.47003448 -0.12694803 -0.0929197 -0.2965989 -0.306483 0.11318396 -0.019036382
0.29299852 0.19765358 0.40252712 -0.035481233 0.0049074898 0.14671315 0.43147373 -0.32414007
-0.26747882 -0.46360093 -0.0927081 -0.21079093 -0.42390943 -0.11526636 0.07144004 0.28825343
0.43654767 -0.10425472 -0.12242628 -0.033404335 -0.051415183 0.51809746 0.44512486 -0.077253066
-0.06432198 -0.46887273 0.17108741 0.34994614 0.0021919743 0.35204366 -0.15637116 0.06552694
0.4027186 -0.18882753 -0.20527785 0.38673675 -0.37974575 0.1125044 0.29101622 0.05419809
-0.123171136 0.1724767 0.41362816 -0.20979209 0.4741104 0.2195777 -0.05041229 -0.24852712
-0.47631994 0.19403727 -0.15224324 0.43431157 0.18446578 0.12448493 -0.5100375 0.37448135
-0.17345408 -0.34166506 0.15092736 0.010524241 0.13289617 -0.46877486 -0.013440093 0.23858693
0.37724692 -0.39672264 0.35945874 0.12026818 -0.2843521 0.09658815 -0.22776936 0.17931777
0.10661439 -0.32480857 0.39581966 -0.16785146 -0.15745772 0.28425285 -0.24570924 0.39942697
0.016367802 -0.19514622 0.12699208 -0.1333161 -0.47172025 0.41523167 0.3547802 -0.04220372
0.3340725 0.005143278 0.2611971 -0.16872633 0.38744378 0.33920118 0.26769593 0.37050804
0.08848604 -0.35025287 -0.21744226 0.19224639 -0.14543352 -0.6318196 0.118338354 -0.25181398
-0.2962106 -0.22712693 0.27638352 0.34669176 -0.09520666 -0.4421659 0.21879347 0.04523581
-0.2660634 -0.05046199 0.18572986 -0.16919523 -0.3127075 0.10929609 0.4425244 -0.058903523
-0.023210153 -0.23782188 0.365284 0.3897746 0.14238496 -0.22146769 -0.25459388 0.09094041
0.003306645 -0.14836586 -0.34059918 0.30870554 -0.23166472 -0.11882244 -0.09697021 -1.0583397
-0.06903991 0.14984085 0.08793596 -0.3507827 -0.21615733 -0.052514024 0.050729997 -0.032027904
0.04909728 -0.06252456 0.41312304 -0.31296286 -0.29873255 -0.31902856 0.42051926 0.019661171
-0.06150796 -0.3661469 0.19107719 -0.5241461 0.0069522676 -0.21239768 -0.046772797 -0.30925316
-0.022466002 -0.32063648 -0.4241822 0.43407425 0.06723844 -0.14677465 -0.42647907 0.14999156
00000000: 7983 0b3e f1c7 63be 9a7b a33c 9b7a d13e
00000010: 8d48 413e 4d36 67be 4018 8fbe 83d8 4c3d
00000020: b6e7 b33e d2bf 1c3e 177a 91be a775 9fbd
00000030: 7df3 953e a495 433e 7ecc 143c f52b c4bd
00000040: 11a6 84be 1e80 1abf 44ff c3be 92d8 8fbd
00000050: a951 cf3e 625c af3e 4b32 f13e 306b 48be
00000060: 99cf 4fbf bb6d 3cbe 92a9 a73e 6c10 39be
00000070: 8d21 6d3e cd34 7bbd 8eca 85be c20b 353d
00000080: 2867 8d3e 9407 983e 2b8b 3a3e e15e a3be
00000090: 8910 99be affc a4bd c39e debe 0903 953e
000000a0: 7800 bf3e 1195 d33d 00f5 943e 3509 123e
000000b0: 0b91 073e c434 0b3e 57bd 983e b5f2 bbba
000000c0: 18f9 04bf bc19 8a3e 59b8 b13e e908 3e3e
000000d0: 5bb3 c03e ea1f 843c dbad 023f 45cf 79be
000000e0: 777d 15bf 3757 62be d6f5 753e 1ebb 8abe
000000f0: c593 00bf a153 92be dd15 173e 5c53 cabc
00000100: 2ab7 3f3c 9768 c7be 1f0e 343e daac bc3d
00000110: de28 76be 8769 2f3e 4c7d 8abe 97da 493e
00000120: 87aa 703f a985 a73e 4a90 72be 6d78 84bf
00000130: 0e22 803e 1cc4 b53e 453f 113e 7b3d 3ebe
00000140: ac13 89bd 5ca8 f0be aafe 01be af4c bebd
00000150: d0db 97be 57eb 9cbe fecc e73d 30f2 9bbc
00000160: e703 963e b365 4a3e 0918 ce3e c554 11bd
00000170: 02cf a03b f93b 163e 20ea dc3e b0f5 a5be
00000180: fcf2 88be 1a5d edbe bfdd bdbd 94d9 57be
00000190: a80a d9be c510 ecbd 284f 923d f495 933e
000001a0: 2d83 df3e 8083 d5bd a1ba fabd fcd2 08bd
000001b0: ba98 52bd 09a2 043f 68e7 e33e db36 9ebd
000001c0: 3ebb 83bd 1610 f0be 8a31 2f3e 242c b33e
000001d0: 3aa7 0f3b 113f b43e c31f 20be fd32 863d
000001e0: 2231 ce3e 015c 41be 5b34 52be 5c02 c63e
000001f0: 096e c2be b568 e63d 1400 953e d1fe 5d3d
00000200: 2641 fcbd bb9d 303e 12c7 d33e bdd3 56be
00000210: 99be f23e fad8 603e 1e7d 4ebd e57d 7ebe
00000220: 35e0 f3be b5b1 463e a7e5 1bbe 165e de3e
00000230: 99e4 3c3e f4f1 fe3d d191 02bf 05bc bf3e
00000240: f29d 31be b9ee aebe b48c 1a3e de6d 2c3c
00000250: ef15 083e 4203 f0be d633 5cbc 2250 743e
00000260: 8226 c13e 3b1f cbbe fa0a b83e 2a4f f63d
00000270: 9996 91be 02d0 c53d 5f3c 69be 149f 373e
00000280: a558 da3d 4f4d a6be e0a8 ca3e 41e1 2bbe
00000290: 993c 21be 9789 913e 349b 7bbe b181 cc3e
000002a0: c515 863c 69d4 47be 360a 023e 0484 08be
000002b0: 5185 f1be 3f99 d43e c0a5 b53e cfdd 2cbd
000002c0: 8d0b ab3e f188 a83b a0bb 853e 98c6 2cbe
000002d0: 085f c63e c7ab ad3e 710f 893e 3bb3 bd3e
000002e0: 2b38 b53d 5854 b3be 2fa9 5ebe 3ddc 443e
000002f0: 86ec 14be eebe 21bf 615b f23d c3ed 80be
00000300: eaa8 97be f693 68be 2482 8d3e 9581 b13e
00000310: b6fb c2bd 9263 e2be 650b 603e 2f49 393d
00000320: 7639 88be 3bb1 4ebd f82f 3e3e 8441 2dbe
00000330: 331b a0be a1d6 df3d 8f92 e23e d244 71bd
00000340: 3823 bebc 9487 73be 8106 bb3e 8990 c73e
00000350: 5dcd 113e 6dc8 62be 215a 82be f73e ba3d
00000360: 4cb4 583b 38ed 17be 0463 aebe a70e 9e3e
00000370: 8439 6dbe 2e59 f3bd 5198 c6bd ad77 87bf
00000380: cc64 8dbd e16f 193e c517 b43d ca99 b3be
00000390: 5958 5dbe f218 57bd 42ca 4f3d b12f 03bd
000003a0: 3b1a 493d e00c 80bd dd84 d33e ab3c a0be
000003b0: 79f3 98be b657 a3be 4d4e d73e 7710 a13c
000003c0: c5ef 7bbd 9b77 bbbe bda9 433e 702e 06bf
000003d0: d9cf e33b c77e 59be d594 3fbd 6e56 9ebe
000003e0: 9f0a b8bc 772a a4be 692e d9be fb3e de3e
000003f0: 4fb4 893d 184c 16be 775b dabe 6397 193e

StatefulPartitionedCall/model/time_distributed_1/dense_1/BiasAdd/ReadVariableOp:0 f4 [16]
-0.06459877 0.031200605 0.066626444 0.076853424 -0.07359692 -0.05325246 0.06792144 0.07816742
0.03822821 -0.051422857 0.07013719 -0.0017065288 -0.08981545 0.0019665041 -0.06977717 -0.005425328
00000000: 5c4c 84bd 6998 ff3c 7273 883d 5465 9d3d
00000010: fbb9 96bd 401f 5abd 651a 8b3d 3e16 a03d
00000020: 2f95 1c3d c6a0 52bd 16a4 8f3d 9bad dfba
00000030: 2af1 b7bd 77e0 003b 55e7 8ebd f3c6 b1bb

StatefulPartitionedCall/model/time_distributed/dense/MatMul/ReadVariableOp:0 f4 [69, 16]
-0.35817936 0.024385385 0.058593526 0.33799013 0.15069641 0.16634664 -0.12988764 -0.13052696
0.013693543 0.20788316 0.19638956 -0.07420691 0.04612502 0.15694232 0.03510991 -0.16703942
-0.10271946 0.0029209275 -0.24586426 0.25001818 -0.08785048 -0.30165353 -0.24156871 -0.15287071
0.2062777 0.032323714 -0.45594978 -0.095465645 0.32259044 0.07688433 0.16594622 -0.1327259
-0.18827164 -0.08159031 0.014523859 -0.043343417 0.25675082 -0.13472809 0.17544591 -0.014242582
-0.2858137 0.17213482 0.2219017 -0.038680978 0.018357137 0.29370064 0.14795375 0.20276397
0.044581696 0.025478207 -0.27343577 -0.032843933 -0.16055363 -0.029939035 0.5580142 -0.022831306
0.0062866644 0.24553667 -0.06694964 0.07930658 0.07997163 0.2728364 0.20355031 -0.18526533
0.09868926 -0.24241146 -0.5332256 -0.50080955 0.8225488 0.3451796 0.27081087 -0.18782344
0.37425432 0.09603838 0.38532424 -0.55154693 -0.3182911 -0.05950472 0.38022867 -0.07511448
-0.1030482 -0.16852151 -0.17993423 0.34250802 -0.22154908 -0.059667252 -0.22012739 -0.09209451
-0.24621962 -0.053752374 -0.032439962 0.11831584 0.32913613 0.25616488 -0.08043344 0.09508171
0.15840273 -0.10565593 0.2523785 0.063965544 0.27003124 0.2651286 -0.07984144 0.14422934
-0.16992255 -0.34473202 0.38516837 -0.013176731 0.24917188 0.058635212 -0.34100813 0.1884696
-0.38357082 -0.0036694172 -0.07172947 0.10609648 -0.115008436 0.19020158 -0.08342726 0.13757865
0.08143612 0.302852 -0.040819917 -0.3242151 -0.059611052 -0.051855702 -0.06662535 -0.036248382
-0.14269415 -0.021765515 0.34980464 0.21662174 -0.36248314 0.17184323 0.084765546 0.1528129
0.20279397 -0.08690559 -0.30494547 -0.21064292 -0.06599277 0.10908501 0.060431328 -0.13513912
0.16741706 -0.23599188 0.1261833 0.2861921 -0.21677393 -0.10958219 0.04001968 0.09051433
0.22958045 0.3243148 0.22117585 0.029346537 0.091094725 -0.03495733 0.15951344 0.08382122
0.22096097 0.17052326 0.31163058 -0.032609433 -0.25246385 -0.25217476 -0.08774695 0.06844258
0.0041393875 -0.23731437 0.11182473 0.10677513 0.20273402 0.02698661 -0.18702285 0.09927874
0.3438446 0.23186837 -0.34256706 0.04089789 0.079610445 -0.17958575 0.19556989 -0.21192063
0.03650175 -0.026448578 0.17061777 -0.014994987 -0.24600852 -0.051738467 0.12900943 0.08380595
-0.11037127 -0.09003507 0.15199624 -0.09095714 -0.3122288 0.11404273 -0.23711757 -0.15745468
-0.320278 0.16611269 -0.15339957 -0.25262424 0.21961433 0.10523325 0.18209852 -0.42210796
-0.011080241 -0.13838585 -0.029018577 -0.31040636 -0.094312444 -0.05280567 0.28678104 -0.07059575
0.42875797 -0.075834505 -0.062225126 -0.060962703 -0.28316602 0.00021433563 0.2500806 -0.039329052
-0.17850938 0.12377631 0.05579096 0.13994426 -0.36793187 -0.2475812 -0.431424 -0.1870104
-0.06326257 -0.13339114 -0.16380395 0.058921907 -0.13343109 0.052623607 -0.024926493 -0.34282902
-0.04795016 -0.084822714 -0.059758954 -0.056746915 0.04398725 0.14815366 0.19554093 -0.11094878
0.21211916 -0.20993395 -0.19834907 -0.06661473 -0.22783898 0.17095594 -0.080417104 0.06493042
00000000: 4963 b7be dcc3 c73c c4ff 6f3d 0b0d ad3e
00000010: 2950 1a3e c656 2a3e 4401 05be dca8 05be
00000020: e25a 603c 53df 543e 581a 493e cbf9 97bd
00000030: 97ed 3c3d 7db5 203e 69cf 0f3d 620c 2bbe
00000040: 955e d2bd 086d 3f3b d7c3 7bbe 6202 803e
00000050: f4ea b3bd 5572 9abe ca5d 77be 248a 1cbe
00000060: 763a 533e df65 043d 4072 e9be 7e83 c3bd
00000070: 932a a53e 8875 9d3d ceed 293e 4ce9 07be
00000080: 48ca 40be d218 a7bd 7bf5 6d3c de88 31bd
00000090: d874 833e 29f6 09be 18a8 333e b859 69bc
000000a0: 2c56 92be 1c44 303e 333a 633e f26f 1ebd
000000b0: b561 963c ee5f 963e 3081 173e 5ca1 4f3e
000000c0: 4c9b 363d acb7 d03c c6ff 8bbe 5c87 06bd
000000d0: 2c68 24be b542 f5bc 05da 0e3f b808 bbbc
000000e0: 5d00 ce3b f76d 7b3e e51c 89bd 7d6b a23d
000000f0: 2ac8 a33d 36b1 8b3e 7e6f 503e 32b6 3dbe
00000100: 981d ca3d b63a 78be 7981 08bf 0e35 00bf
00000110: 8f92 523f 61bb b03e b9a7 8a3e ca54 40be
00000120: 439e bf3e c5af c43d 3849 c53e 2e32 0dbf
00000130: 0df7 a2be 39bb 73bd 55ad c23e 9fd5 99bd
00000140: ef0a d3bd e790 2cbe ae40 38be 365d af3e
00000150: c3dd 62be a665 74bd 1369 61be 0c9c bcbd
00000160: ff20 7cbe 732b 5cbd c4df 04bd 934f f23d
00000170: 8884 a83e 0b28 833e 4aba a4bd 33ba c23d
00000180: 5334 223e 2362 d8bd c137 813e 5e00 833d
00000190: 8941 8a3e f0be 873e e983 a3bd dbb0 133e
000001a0: 2d00 2ebe b780 b0be ca34 c53e 37e3 57bc
000001b0: ea26 7f3e 7a2b 703d 9e98 aebe 2dfe 403e
000001c0: 6563 c4be 9b7a 70bb e6e6 92bd 1c49 d93d
000001d0: 8b89 ebbd 34c4 423e e9db aabd 6be1 0c3e
000001e0: fbc7 a63d 6b0f 9b3e c932 27bd 86ff a5be
000001f0: b82a 74bd a566 54bd df72 88bd 2f79 14bd
00000200: 6a1e 12be 984d b2bc 9819 b33e 17d2 5d3e
00000210: 6497 b9be acf7 2f3e 8f99 ad3d fc7a 1c3e
00000220: 39a9 4f3e 8ffb b1bd d021 9cbe c7b2 57be
00000230: 3827 87bd f667 df3d d786 773d e961 0abe
00000240: 616f 2b3e dba7 71be 3236 013e c587 923e
00000250: fcf9 5dbe a16c e0bd adeb 233d 945f b93d
00000260: 2317 6b3e 970c a63e ec7b 623e 2668 f03c
00000270: df8f ba3d 6b2f 0fbd 7e57 233e 76aa ab3d
00000280: 9843 623e a69d 2e3e 0b8e 9f3e 7891 05bd
00000290: f142 81be 0d1d 81be acb4 b3bd a02b 8c3d
000002a0: b3a3 873b 8a02 73be 5d04 e53d ebac da3d
000002b0: 8299 4f3e 0613 dd3c eb82 3fbe a752 cb3d
000002c0: 660c b03e e76e 6d3e f364 afbe 8c84 273d
000002d0: cd0a a33d 54e5 37be 7943 483e b901 59be
000002e0: dc82 153d b0aa d8bc 6db6 2e3e 89ad 75bc
000002f0: a8e9 7bbe b7eb 53bd 0c1b 043e 74a2 ab3d
00000300: 550a e2bd 4f64 b8bd e7a4 1b3e bd47 babd
00000310: 74dc 9fbe 3c8f e93d f3ce 72be cd3b 21be
00000320: 7afb a3be 7219 2a3e c714 1dbe f757 81be
00000330: 94e2 603e 8884 d73d 0978 3a3e 891e d8be
00000340: e689 35bc 05b5 0dbe 5eb8 edbc 95ed 9ebe
00000350: e226 c1bd c24a 58bd f7d4 923e 8194 90bd
00000360: 2a86 db3e 1f4f 9bbd c6df 7ebd 07b4 79bd
00000370: 23fb 90be 48bf 6039 900a 803e 8017 21bd
00000380: 2acb 36be 6f7e fd3d 1085 643d 8c4d 0f3e
00000390: 9161 bcbe ed85 7dbe 9be3 dcbe a87f 3fbe
000003a0: ce8f 81bd b097 08be 39bc 27be 1958 713d
000003b0: 29a2 08be da8b 573d a532 ccbc 4987 afbe
000003c0: 6367 44bd 88b7 adbd cec5 74bd 746f 68bd
000003d0: fa2b 343d 98b5 173e e23b 483e 1d39 e3bd
000003e0: c435 593e edf8 56be 051c 4bbe 4e6d 88bd
000003f0: 9f4e 69be 130f 2f3e b9b1 a4bd 3dfa 843d

StatefulPartitionedCall/model/time_distributed/dense/BiasAdd/ReadVariableOp:0 f4 [16]
-0.063045464 -0.0039916555 -0.01782657 0.11823733 -0.05357372 0.029397715 -0.0051351655 0.01984868
-0.044912893 0.055715114 0.038345553 -0.088694766 0.048520952 0.03379477 0.043578986 -0.016042838
00000000: fb1d 81bd 6fcc 82bb 0709 92bc 6a26 f23d
00000010: 1e70 5bbd 7ad3 f03c e444 a8bb b399 a23c
00000020: 95f6 37bd 8835 643d 3a10 1d3d 9aa5 b5bd
00000030: e8bd 463d 626c 0a3d e17f 323d 456c 83bc

R0__92 f4 [1, 40, 10]
0.28550375 -0.08266626 -0.07377296 0.2663466 -0.116406776 0.0137029225 0.014770653 -0.06770558
0.311351 0.017156769 0.22582732 0.4788408 0.41781595 -0.05212987 0.8174476 0.022745633
-0.34972227 0.12042841 -0.5860614 -0.4157916 0.3141049 0.15837073 0.043724384 -0.03347742
-0.17869554 0.011954357 0.07280539 -0.27243602 0.039555266 -0.7187143 0.29152057 0.4913111
0.124626495 -0.040165156 0.3243964 -0.24664558 0.24984582 -0.041136503 0.023138082 0.5081243
0.37462184 -0.473192 0.3877113 0.45428896 0.030372296 0.2510809 0.42420667 -0.5973218
-0.1679114 -0.09719801 0.019428166 0.11320189 0.21856788 0.19249904 -0.5260641 -0.090401
0.34965855 -0.03726798 0.43206403 0.48140007 0.021223385 0.27095604 -0.019540267 -0.25566086
0.10908803 0.20277078 -0.15165736 0.071781784 -0.17602982 0.09737486 -0.076371506 0.040484745
-0.16146335 -0.20078407 0.06402595 0.34028235 0.25591716 -0.11648159 0.02353561 0.08707166
0.30662912 0.572338 -0.058590714 -0.13336562 -0.0645341 0.1892788 -0.12941116 -0.06249163
0.18857248 0.015451672 -0.25096685 -0.23637408 0.041993402 -0.29860595 -0.2006266 0.27052107
0.40269178 0.09906204 -0.07609871 0.12213905 -0.039458457 -0.468797 -0.07642686 -0.017241104
-0.24059464 0.2496944 0.04518328 -0.51994485 0.02662562 -0.29571557 -0.30631512 -0.10616821
0.52477616 -0.073903315 0.7578259 0.18033524 -0.025345126 -0.27928314 0.28872544 -0.31464466
0.23941757 -0.025534315 -0.17138898 -0.033693187 0.13908482 -0.31817055 0.23524168 0.36688966
-0.491443 -0.37032062 0.33786324 0.4114755 -0.14504409 -0.35849383 -0.004279583 -0.17274596
0.45127213 -0.07183596 -0.34898347 0.81428397 -0.20483118 -0.048501562 0.2412284 -0.15916291
0.06016813 -0.054225475 0.19133708 -0.049967214 -0.28480342 -0.28457373 -0.43950796 0.17259906
-0.060999334 -0.52770525 -0.21259145 -0.3153245 -0.11935408 0.17528537 0.51183075 0.924917
-0.17782526 -0.079233624 0.07526836 -0.16415565 0.11930668 0.25781485 0.1710008 -0.0016819005
-0.38318926 -0.11165377 0.026862275 0.642747 -0.08118878 0.23211975 0.028080834 -0.120356455
-0.058970176 -0.10692048 -0.17358659 0.4054545 -0.15036114 0.101925276 -0.1003085 -0.17456944
-0.23852064 0.04834524 -0.13584758 -0.19264235 0.004832257 0.56036353 0.07870351 -0.14639309
0.1718459 -0.103572026 -0.13178097 0.076141395 0.3133146 0.22120005 -0.00068058184 -0.0559062
-0.025470614 -0.5934148 0.082953036 -0.22503684 -0.111163355 0.09235756 0.20793399 0.020160897
-0.19234635 -0.5002589 -0.3320698 -0.44504574 -0.29441974 -0.26943132 -0.029868986 0.27691677
0.0015669925 0.47130996 0.0031079913 -0.6664753 0.11307571 -0.24020034 0.11706281 0.11133404
-0.14854829 3.739138e-05 -0.10817187 0.020639194 -0.025284147 -0.015123667 0.08161381 0.052968144
-0.1030276 -0.48372266 0.055039793 -0.09291553 -0.09789434 -0.12093116 -0.6638082 0.5810681
-0.5669495 -0.5048095 -0.018757062 -0.279054 0.46849713 0.0040612267 0.28121778 0.2720084
-0.4470855 -0.7607938 0.32348487 0.0856221 0.0065759947 -0.5849789 0.17220181 -0.28905943
00000000: 8c2d 923e ee4c a9bd 4716 97bd 955e 883e
00000010: ad66 eebd 3982 603c 9c00 723c 39a9 8abd
00000020: 6669 9f3e 5a8c 8c3c 473f 673e 9f2a f53e
00000030: f9eb d53e 2186 55bd 3f44 513f 0d55 ba3c
00000040: cc0e b3be 2ca3 f63d 1f08 16bf a3e2 d4be
00000050: 5cd2 a03e f02b 223e 5718 333d 9f1f 09bd
00000060: f7fb 36be 35dc 433c fe1a 953d bc7c 8bbe
00000070: b404 223d a9fd 37bf 2f42 953e 218d fb3e
00000080: 2d3c ff3d 3884 24bd 4917 a63e a990 7cbe
00000090: 95d7 7f3e c07e 28bd 138c bd3c 6f14 023f
000000a0: 6fce bf3e 3946 f2be 1882 c63e 9098 e83e
000000b0: 52cf f83c ad8d 803e 9e31 d93e 15ea 18bf
000000c0: f7f0 2bbe c00f c7bd d127 9f3c 64d6 e73d
000000d0: 42d0 5f3e 781e 453e 23ac 06bf 2924 b9bd
000000e0: 7206 b33e 4fa6 18bd 7f37 dd3e 127a f63e
000000f0: aadc ad3c c0ba 8a3e e912 a0bc fbe5 82be
00000100: 8c69 df3d 25a3 4f3e 114c 1bbe 5402 933d
00000110: 2941 34be 786c c73d aa68 9cbd 55d3 253d
00000120: a656 25be 579a 4dbe 0a20 833d 7d39 ae3e
00000130: 9307 833e e68d eebd c0cd c03c a052 b23d
00000140: 7efe 9c3e be84 123f d1fc 6fbd ff90 08be
00000150: 742a 84bd 4dd2 413e 5c84 04be 39f7 7fbd
00000160: 2519 413e 0229 7d3c ba7e 80be 0c0c 72be
00000170: 4601 2c3d e1e2 98be 0f71 4dbe bd81 8a3e
00000180: 9e2d ce3e 0ae1 ca3d a4d9 9bbd 0a24 fa3d
00000190: 319f 21bd 2906 f0be b085 9cbd 373d 8dbc
000001a0: 715e 76be e4af 7f3e 1a12 393d 1b1b 05bf
000001b0: f91d da3c 0868 97be 56d5 9cbe b86e d9bd
000001c0: bb57 063f 9f5a 97bd e100 423f cda9 383e
000001d0: 95a0 cfbc 33fe 8ebe d2d3 933e 1b19 a1be
000001e0: e129 753e 572d d1bc 9880 2fbe de01 0abd
000001f0: 406c 0e3e 40e7 a2be 32e3 703e f6d8 bb3e
00000200: 6b9e fbbe aa9a bdbe 69fc ac3e ebac d23e
00000210: 7086 14be 818c b7be bf3b 8cbb 51e4 30be
00000220: 240d e73e bb1e 93bd f6ad b2be ea74 503f
00000230: 44bf 51be 93a9 46bd 9404 773e 9afb 22be
00000240: db72 763d 881b 5ebd deed 433e 6caa 4cbd
00000250: c1d1 91be a6b3 91be 3007 e1be cfbd 303e
00000260: 70da 79bd b117 07bf 93b1 59be 3672 a1be
00000270: e96f f4bd 027e 333e 5707 033f 5cc7 6c3f
00000280: d317 36be 3d45 a2bd 4c26 9a3d 6b18 28be
00000290: 1057 f43d 4f00 843e d51a 2f3e 3773 dcba
000002a0: 6231 c4be bbaa e4bd 460e dc3c 118b 243f
000002b0: 4e46 a6bd cdb0 6d3e c709 e63c 727d f6bd
000002c0: b68a 71bd 20f9 dabd afc0 31be bb97 cf3e
000002d0: 45f8 19be 33be d03d 8b6e cdbd 55c2 32be
000002e0: c13e 74be a905 463d a11b 0bbe 0944 45be
000002f0: e957 9e3b fc73 0f3f 4e2f a13d 12e8 15be
00000300: 5ff8 2f3e 921d d4bd 97f1 06be 05f0 9b3d
00000310: c56a a03e 4482 623e 1369 32ba e6fd 64bd
00000320: c0a7 d0bc 08ea 17bf 48e3 a93d 0f70 66be
00000330: 9da9 e3bd f625 bd3d a6ec 543e 7728 a53c
00000340: 71f6 44be f810 00bf 0e05 aabe 09dd e3be
00000350: 2fbe 96be e7f2 89be ceaf f4bc 09c8 8d3e
00000360: 8b63 cd3a 8a4f f13e 71af 4b3b 209e 2abf
00000370: 3d94 e73d 14f7 75be a0be ef3d 1a03 e43d
00000380: 0b1d 18be b0d4 1c38 3789 ddbd 8713 a93c
00000390: b320 cfbc 42c9 77bc 2425 a73d 20f5 583d
000003a0: 2200 d3bd 7faa f7be 6871 613d 7f4a bebd
000003b0: d47c c8bd c2aa f7bd 56ef 29bf e1c0 143f
000003c0: 9a23 11bf 323b 01bf 69a8 99bc 2ae0 8ebe
000003d0: dbde ef3e 0a14 853b c7fb 8f3e af44 8b3e
000003e0: 64e8 e4be 62c3 42bf cf9f a53e a45a af3d
000003f0: 717b d73b 2dc1 15bf ac55 303e 99ff 93be
